name: "ACTdetector_UCFSports_FLOW5_deploy"
input: "data_stream0flow"
input: "data_stream1flow"
input: "data_stream2flow"
input: "data_stream3flow"
input: "data_stream4flow"
input: "data_stream5flow"
input_shape {
  dim: 1
  dim: 15
  dim: 300
  dim: 300
}
input_shape {
  dim: 1
  dim: 15
  dim: 300
  dim: 300
}
input_shape {
  dim: 1
  dim: 15
  dim: 300
  dim: 300
}
input_shape {
  dim: 1
  dim: 15
  dim: 300
  dim: 300
}
input_shape {
  dim: 1
  dim: 15
  dim: 300
  dim: 300
}
input_shape {
  dim: 1
  dim: 15
  dim: 300
  dim: 300
}
layer {
  name: "conv1_1_stream0flow"
  type: "Convolution"
  bottom: "data_stream0flow"
  top: "conv1_1_stream0flow"
  param {
    name: "conv1_1flow_w"
    lr_mult: 0.166666666667
    decay_mult: 1
  }
  param {
    name: "conv1_1flow_b"
    lr_mult: 0.333333333333
    decay_mult: 0
  }
  convolution_param {
    num_output: 64
    pad: 1
    kernel_size: 3
    weight_filler {
      type: "xavier"
    }
    bias_filler {
      type: "constant"
      value: 0
    }
  }
}
layer {
  name: "conv1_1_stream1flow"
  type: "Convolution"
  bottom: "data_stream1flow"
  top: "conv1_1_stream1flow"
  param {
    name: "conv1_1flow_w"
    lr_mult: 0.166666666667
    decay_mult: 1
  }
  param {
    name: "conv1_1flow_b"
    lr_mult: 0.333333333333
    decay_mult: 0
  }
  convolution_param {
    num_output: 64
    pad: 1
    kernel_size: 3
    weight_filler {
      type: "xavier"
    }
    bias_filler {
      type: "constant"
      value: 0
    }
  }
}
layer {
  name: "conv1_1_stream2flow"
  type: "Convolution"
  bottom: "data_stream2flow"
  top: "conv1_1_stream2flow"
  param {
    name: "conv1_1flow_w"
    lr_mult: 0.166666666667
    decay_mult: 1
  }
  param {
    name: "conv1_1flow_b"
    lr_mult: 0.333333333333
    decay_mult: 0
  }
  convolution_param {
    num_output: 64
    pad: 1
    kernel_size: 3
    weight_filler {
      type: "xavier"
    }
    bias_filler {
      type: "constant"
      value: 0
    }
  }
}
layer {
  name: "conv1_1_stream3flow"
  type: "Convolution"
  bottom: "data_stream3flow"
  top: "conv1_1_stream3flow"
  param {
    name: "conv1_1flow_w"
    lr_mult: 0.166666666667
    decay_mult: 1
  }
  param {
    name: "conv1_1flow_b"
    lr_mult: 0.333333333333
    decay_mult: 0
  }
  convolution_param {
    num_output: 64
    pad: 1
    kernel_size: 3
    weight_filler {
      type: "xavier"
    }
    bias_filler {
      type: "constant"
      value: 0
    }
  }
}
layer {
  name: "conv1_1_stream4flow"
  type: "Convolution"
  bottom: "data_stream4flow"
  top: "conv1_1_stream4flow"
  param {
    name: "conv1_1flow_w"
    lr_mult: 0.166666666667
    decay_mult: 1
  }
  param {
    name: "conv1_1flow_b"
    lr_mult: 0.333333333333
    decay_mult: 0
  }
  convolution_param {
    num_output: 64
    pad: 1
    kernel_size: 3
    weight_filler {
      type: "xavier"
    }
    bias_filler {
      type: "constant"
      value: 0
    }
  }
}
layer {
  name: "conv1_1_stream5flow"
  type: "Convolution"
  bottom: "data_stream5flow"
  top: "conv1_1_stream5flow"
  param {
    name: "conv1_1flow_w"
    lr_mult: 0.166666666667
    decay_mult: 1
  }
  param {
    name: "conv1_1flow_b"
    lr_mult: 0.333333333333
    decay_mult: 0
  }
  convolution_param {
    num_output: 64
    pad: 1
    kernel_size: 3
    weight_filler {
      type: "xavier"
    }
    bias_filler {
      type: "constant"
      value: 0
    }
  }
}
layer {
  name: "relu1_1_stream0flow"
  type: "ReLU"
  bottom: "conv1_1_stream0flow"
  top: "conv1_1_stream0flow"
}
layer {
  name: "conv1_2_stream0flow"
  type: "Convolution"
  bottom: "conv1_1_stream0flow"
  top: "conv1_2_stream0flow"
  param {
    name: "conv1_2flow_w"
    lr_mult: 0.166666666667
    decay_mult: 1
  }
  param {
    name: "conv1_2flow_b"
    lr_mult: 0.333333333333
    decay_mult: 0
  }
  convolution_param {
    num_output: 64
    pad: 1
    kernel_size: 3
    weight_filler {
      type: "xavier"
    }
    bias_filler {
      type: "constant"
      value: 0
    }
  }
}
layer {
  name: "relu1_2_stream0flow"
  type: "ReLU"
  bottom: "conv1_2_stream0flow"
  top: "conv1_2_stream0flow"
}
layer {
  name: "relu1_1_stream1flow"
  type: "ReLU"
  bottom: "conv1_1_stream1flow"
  top: "conv1_1_stream1flow"
}
layer {
  name: "conv1_2_stream1flow"
  type: "Convolution"
  bottom: "conv1_1_stream1flow"
  top: "conv1_2_stream1flow"
  param {
    name: "conv1_2flow_w"
    lr_mult: 0.166666666667
    decay_mult: 1
  }
  param {
    name: "conv1_2flow_b"
    lr_mult: 0.333333333333
    decay_mult: 0
  }
  convolution_param {
    num_output: 64
    pad: 1
    kernel_size: 3
    weight_filler {
      type: "xavier"
    }
    bias_filler {
      type: "constant"
      value: 0
    }
  }
}
layer {
  name: "relu1_2_stream1flow"
  type: "ReLU"
  bottom: "conv1_2_stream1flow"
  top: "conv1_2_stream1flow"
}
layer {
  name: "relu1_1_stream2flow"
  type: "ReLU"
  bottom: "conv1_1_stream2flow"
  top: "conv1_1_stream2flow"
}
layer {
  name: "conv1_2_stream2flow"
  type: "Convolution"
  bottom: "conv1_1_stream2flow"
  top: "conv1_2_stream2flow"
  param {
    name: "conv1_2flow_w"
    lr_mult: 0.166666666667
    decay_mult: 1
  }
  param {
    name: "conv1_2flow_b"
    lr_mult: 0.333333333333
    decay_mult: 0
  }
  convolution_param {
    num_output: 64
    pad: 1
    kernel_size: 3
    weight_filler {
      type: "xavier"
    }
    bias_filler {
      type: "constant"
      value: 0
    }
  }
}
layer {
  name: "relu1_2_stream2flow"
  type: "ReLU"
  bottom: "conv1_2_stream2flow"
  top: "conv1_2_stream2flow"
}
layer {
  name: "relu1_1_stream3flow"
  type: "ReLU"
  bottom: "conv1_1_stream3flow"
  top: "conv1_1_stream3flow"
}
layer {
  name: "conv1_2_stream3flow"
  type: "Convolution"
  bottom: "conv1_1_stream3flow"
  top: "conv1_2_stream3flow"
  param {
    name: "conv1_2flow_w"
    lr_mult: 0.166666666667
    decay_mult: 1
  }
  param {
    name: "conv1_2flow_b"
    lr_mult: 0.333333333333
    decay_mult: 0
  }
  convolution_param {
    num_output: 64
    pad: 1
    kernel_size: 3
    weight_filler {
      type: "xavier"
    }
    bias_filler {
      type: "constant"
      value: 0
    }
  }
}
layer {
  name: "relu1_2_stream3flow"
  type: "ReLU"
  bottom: "conv1_2_stream3flow"
  top: "conv1_2_stream3flow"
}
layer {
  name: "relu1_1_stream4flow"
  type: "ReLU"
  bottom: "conv1_1_stream4flow"
  top: "conv1_1_stream4flow"
}
layer {
  name: "conv1_2_stream4flow"
  type: "Convolution"
  bottom: "conv1_1_stream4flow"
  top: "conv1_2_stream4flow"
  param {
    name: "conv1_2flow_w"
    lr_mult: 0.166666666667
    decay_mult: 1
  }
  param {
    name: "conv1_2flow_b"
    lr_mult: 0.333333333333
    decay_mult: 0
  }
  convolution_param {
    num_output: 64
    pad: 1
    kernel_size: 3
    weight_filler {
      type: "xavier"
    }
    bias_filler {
      type: "constant"
      value: 0
    }
  }
}
layer {
  name: "relu1_2_stream4flow"
  type: "ReLU"
  bottom: "conv1_2_stream4flow"
  top: "conv1_2_stream4flow"
}
layer {
  name: "relu1_1_stream5flow"
  type: "ReLU"
  bottom: "conv1_1_stream5flow"
  top: "conv1_1_stream5flow"
}
layer {
  name: "conv1_2_stream5flow"
  type: "Convolution"
  bottom: "conv1_1_stream5flow"
  top: "conv1_2_stream5flow"
  param {
    name: "conv1_2flow_w"
    lr_mult: 0.166666666667
    decay_mult: 1
  }
  param {
    name: "conv1_2flow_b"
    lr_mult: 0.333333333333
    decay_mult: 0
  }
  convolution_param {
    num_output: 64
    pad: 1
    kernel_size: 3
    weight_filler {
      type: "xavier"
    }
    bias_filler {
      type: "constant"
      value: 0
    }
  }
}
layer {
  name: "relu1_2_stream5flow"
  type: "ReLU"
  bottom: "conv1_2_stream5flow"
  top: "conv1_2_stream5flow"
}
layer {
  name: "pool1_stream0flow"
  type: "Pooling"
  bottom: "conv1_2_stream0flow"
  top: "pool1_stream0flow"
  pooling_param {
    pool: MAX
    kernel_size: 2
    stride: 2
  }
}
layer {
  name: "pool1_stream1flow"
  type: "Pooling"
  bottom: "conv1_2_stream1flow"
  top: "pool1_stream1flow"
  pooling_param {
    pool: MAX
    kernel_size: 2
    stride: 2
  }
}
layer {
  name: "pool1_stream2flow"
  type: "Pooling"
  bottom: "conv1_2_stream2flow"
  top: "pool1_stream2flow"
  pooling_param {
    pool: MAX
    kernel_size: 2
    stride: 2
  }
}
layer {
  name: "pool1_stream3flow"
  type: "Pooling"
  bottom: "conv1_2_stream3flow"
  top: "pool1_stream3flow"
  pooling_param {
    pool: MAX
    kernel_size: 2
    stride: 2
  }
}
layer {
  name: "pool1_stream4flow"
  type: "Pooling"
  bottom: "conv1_2_stream4flow"
  top: "pool1_stream4flow"
  pooling_param {
    pool: MAX
    kernel_size: 2
    stride: 2
  }
}
layer {
  name: "pool1_stream5flow"
  type: "Pooling"
  bottom: "conv1_2_stream5flow"
  top: "pool1_stream5flow"
  pooling_param {
    pool: MAX
    kernel_size: 2
    stride: 2
  }
}
layer {
  name: "conv2_1_stream0flow"
  type: "Convolution"
  bottom: "pool1_stream0flow"
  top: "conv2_1_stream0flow"
  param {
    name: "conv2_1flow_w"
    lr_mult: 0.166666666667
    decay_mult: 1
  }
  param {
    name: "conv2_1flow_b"
    lr_mult: 0.333333333333
    decay_mult: 0
  }
  convolution_param {
    num_output: 128
    pad: 1
    kernel_size: 3
    weight_filler {
      type: "xavier"
    }
    bias_filler {
      type: "constant"
      value: 0
    }
  }
}
layer {
  name: "relu2_1_stream0flow"
  type: "ReLU"
  bottom: "conv2_1_stream0flow"
  top: "conv2_1_stream0flow"
}
layer {
  name: "conv2_1_stream1flow"
  type: "Convolution"
  bottom: "pool1_stream1flow"
  top: "conv2_1_stream1flow"
  param {
    name: "conv2_1flow_w"
    lr_mult: 0.166666666667
    decay_mult: 1
  }
  param {
    name: "conv2_1flow_b"
    lr_mult: 0.333333333333
    decay_mult: 0
  }
  convolution_param {
    num_output: 128
    pad: 1
    kernel_size: 3
    weight_filler {
      type: "xavier"
    }
    bias_filler {
      type: "constant"
      value: 0
    }
  }
}
layer {
  name: "relu2_1_stream1flow"
  type: "ReLU"
  bottom: "conv2_1_stream1flow"
  top: "conv2_1_stream1flow"
}
layer {
  name: "conv2_1_stream2flow"
  type: "Convolution"
  bottom: "pool1_stream2flow"
  top: "conv2_1_stream2flow"
  param {
    name: "conv2_1flow_w"
    lr_mult: 0.166666666667
    decay_mult: 1
  }
  param {
    name: "conv2_1flow_b"
    lr_mult: 0.333333333333
    decay_mult: 0
  }
  convolution_param {
    num_output: 128
    pad: 1
    kernel_size: 3
    weight_filler {
      type: "xavier"
    }
    bias_filler {
      type: "constant"
      value: 0
    }
  }
}
layer {
  name: "relu2_1_stream2flow"
  type: "ReLU"
  bottom: "conv2_1_stream2flow"
  top: "conv2_1_stream2flow"
}
layer {
  name: "conv2_1_stream3flow"
  type: "Convolution"
  bottom: "pool1_stream3flow"
  top: "conv2_1_stream3flow"
  param {
    name: "conv2_1flow_w"
    lr_mult: 0.166666666667
    decay_mult: 1
  }
  param {
    name: "conv2_1flow_b"
    lr_mult: 0.333333333333
    decay_mult: 0
  }
  convolution_param {
    num_output: 128
    pad: 1
    kernel_size: 3
    weight_filler {
      type: "xavier"
    }
    bias_filler {
      type: "constant"
      value: 0
    }
  }
}
layer {
  name: "relu2_1_stream3flow"
  type: "ReLU"
  bottom: "conv2_1_stream3flow"
  top: "conv2_1_stream3flow"
}
layer {
  name: "conv2_1_stream4flow"
  type: "Convolution"
  bottom: "pool1_stream4flow"
  top: "conv2_1_stream4flow"
  param {
    name: "conv2_1flow_w"
    lr_mult: 0.166666666667
    decay_mult: 1
  }
  param {
    name: "conv2_1flow_b"
    lr_mult: 0.333333333333
    decay_mult: 0
  }
  convolution_param {
    num_output: 128
    pad: 1
    kernel_size: 3
    weight_filler {
      type: "xavier"
    }
    bias_filler {
      type: "constant"
      value: 0
    }
  }
}
layer {
  name: "relu2_1_stream4flow"
  type: "ReLU"
  bottom: "conv2_1_stream4flow"
  top: "conv2_1_stream4flow"
}
layer {
  name: "conv2_1_stream5flow"
  type: "Convolution"
  bottom: "pool1_stream5flow"
  top: "conv2_1_stream5flow"
  param {
    name: "conv2_1flow_w"
    lr_mult: 0.166666666667
    decay_mult: 1
  }
  param {
    name: "conv2_1flow_b"
    lr_mult: 0.333333333333
    decay_mult: 0
  }
  convolution_param {
    num_output: 128
    pad: 1
    kernel_size: 3
    weight_filler {
      type: "xavier"
    }
    bias_filler {
      type: "constant"
      value: 0
    }
  }
}
layer {
  name: "relu2_1_stream5flow"
  type: "ReLU"
  bottom: "conv2_1_stream5flow"
  top: "conv2_1_stream5flow"
}
layer {
  name: "conv2_2_stream0flow"
  type: "Convolution"
  bottom: "conv2_1_stream0flow"
  top: "conv2_2_stream0flow"
  param {
    name: "conv2_2flow_w"
    lr_mult: 0.166666666667
    decay_mult: 1
  }
  param {
    name: "conv2_2flow_b"
    lr_mult: 0.333333333333
    decay_mult: 0
  }
  convolution_param {
    num_output: 128
    pad: 1
    kernel_size: 3
    weight_filler {
      type: "xavier"
    }
    bias_filler {
      type: "constant"
      value: 0
    }
  }
}
layer {
  name: "relu2_2_stream0flow"
  type: "ReLU"
  bottom: "conv2_2_stream0flow"
  top: "conv2_2_stream0flow"
}
layer {
  name: "conv2_2_stream1flow"
  type: "Convolution"
  bottom: "conv2_1_stream1flow"
  top: "conv2_2_stream1flow"
  param {
    name: "conv2_2flow_w"
    lr_mult: 0.166666666667
    decay_mult: 1
  }
  param {
    name: "conv2_2flow_b"
    lr_mult: 0.333333333333
    decay_mult: 0
  }
  convolution_param {
    num_output: 128
    pad: 1
    kernel_size: 3
    weight_filler {
      type: "xavier"
    }
    bias_filler {
      type: "constant"
      value: 0
    }
  }
}
layer {
  name: "relu2_2_stream1flow"
  type: "ReLU"
  bottom: "conv2_2_stream1flow"
  top: "conv2_2_stream1flow"
}
layer {
  name: "conv2_2_stream2flow"
  type: "Convolution"
  bottom: "conv2_1_stream2flow"
  top: "conv2_2_stream2flow"
  param {
    name: "conv2_2flow_w"
    lr_mult: 0.166666666667
    decay_mult: 1
  }
  param {
    name: "conv2_2flow_b"
    lr_mult: 0.333333333333
    decay_mult: 0
  }
  convolution_param {
    num_output: 128
    pad: 1
    kernel_size: 3
    weight_filler {
      type: "xavier"
    }
    bias_filler {
      type: "constant"
      value: 0
    }
  }
}
layer {
  name: "relu2_2_stream2flow"
  type: "ReLU"
  bottom: "conv2_2_stream2flow"
  top: "conv2_2_stream2flow"
}
layer {
  name: "conv2_2_stream3flow"
  type: "Convolution"
  bottom: "conv2_1_stream3flow"
  top: "conv2_2_stream3flow"
  param {
    name: "conv2_2flow_w"
    lr_mult: 0.166666666667
    decay_mult: 1
  }
  param {
    name: "conv2_2flow_b"
    lr_mult: 0.333333333333
    decay_mult: 0
  }
  convolution_param {
    num_output: 128
    pad: 1
    kernel_size: 3
    weight_filler {
      type: "xavier"
    }
    bias_filler {
      type: "constant"
      value: 0
    }
  }
}
layer {
  name: "relu2_2_stream3flow"
  type: "ReLU"
  bottom: "conv2_2_stream3flow"
  top: "conv2_2_stream3flow"
}
layer {
  name: "conv2_2_stream4flow"
  type: "Convolution"
  bottom: "conv2_1_stream4flow"
  top: "conv2_2_stream4flow"
  param {
    name: "conv2_2flow_w"
    lr_mult: 0.166666666667
    decay_mult: 1
  }
  param {
    name: "conv2_2flow_b"
    lr_mult: 0.333333333333
    decay_mult: 0
  }
  convolution_param {
    num_output: 128
    pad: 1
    kernel_size: 3
    weight_filler {
      type: "xavier"
    }
    bias_filler {
      type: "constant"
      value: 0
    }
  }
}
layer {
  name: "relu2_2_stream4flow"
  type: "ReLU"
  bottom: "conv2_2_stream4flow"
  top: "conv2_2_stream4flow"
}
layer {
  name: "conv2_2_stream5flow"
  type: "Convolution"
  bottom: "conv2_1_stream5flow"
  top: "conv2_2_stream5flow"
  param {
    name: "conv2_2flow_w"
    lr_mult: 0.166666666667
    decay_mult: 1
  }
  param {
    name: "conv2_2flow_b"
    lr_mult: 0.333333333333
    decay_mult: 0
  }
  convolution_param {
    num_output: 128
    pad: 1
    kernel_size: 3
    weight_filler {
      type: "xavier"
    }
    bias_filler {
      type: "constant"
      value: 0
    }
  }
}
layer {
  name: "relu2_2_stream5flow"
  type: "ReLU"
  bottom: "conv2_2_stream5flow"
  top: "conv2_2_stream5flow"
}
layer {
  name: "pool2_stream0flow"
  type: "Pooling"
  bottom: "conv2_2_stream0flow"
  top: "pool2_stream0flow"
  pooling_param {
    pool: MAX
    kernel_size: 2
    stride: 2
  }
}
layer {
  name: "pool2_stream1flow"
  type: "Pooling"
  bottom: "conv2_2_stream1flow"
  top: "pool2_stream1flow"
  pooling_param {
    pool: MAX
    kernel_size: 2
    stride: 2
  }
}
layer {
  name: "pool2_stream2flow"
  type: "Pooling"
  bottom: "conv2_2_stream2flow"
  top: "pool2_stream2flow"
  pooling_param {
    pool: MAX
    kernel_size: 2
    stride: 2
  }
}
layer {
  name: "pool2_stream3flow"
  type: "Pooling"
  bottom: "conv2_2_stream3flow"
  top: "pool2_stream3flow"
  pooling_param {
    pool: MAX
    kernel_size: 2
    stride: 2
  }
}
layer {
  name: "pool2_stream4flow"
  type: "Pooling"
  bottom: "conv2_2_stream4flow"
  top: "pool2_stream4flow"
  pooling_param {
    pool: MAX
    kernel_size: 2
    stride: 2
  }
}
layer {
  name: "pool2_stream5flow"
  type: "Pooling"
  bottom: "conv2_2_stream5flow"
  top: "pool2_stream5flow"
  pooling_param {
    pool: MAX
    kernel_size: 2
    stride: 2
  }
}
layer {
  name: "conv3_1_stream0flow"
  type: "Convolution"
  bottom: "pool2_stream0flow"
  top: "conv3_1_stream0flow"
  param {
    name: "conv3_1flow_w"
    lr_mult: 0.166666666667
    decay_mult: 1
  }
  param {
    name: "conv3_1flow_b"
    lr_mult: 0.333333333333
    decay_mult: 0
  }
  convolution_param {
    num_output: 256
    pad: 1
    kernel_size: 3
    weight_filler {
      type: "xavier"
    }
    bias_filler {
      type: "constant"
      value: 0
    }
  }
}
layer {
  name: "relu3_1_stream0flow"
  type: "ReLU"
  bottom: "conv3_1_stream0flow"
  top: "conv3_1_stream0flow"
}
layer {
  name: "conv3_1_stream1flow"
  type: "Convolution"
  bottom: "pool2_stream1flow"
  top: "conv3_1_stream1flow"
  param {
    name: "conv3_1flow_w"
    lr_mult: 0.166666666667
    decay_mult: 1
  }
  param {
    name: "conv3_1flow_b"
    lr_mult: 0.333333333333
    decay_mult: 0
  }
  convolution_param {
    num_output: 256
    pad: 1
    kernel_size: 3
    weight_filler {
      type: "xavier"
    }
    bias_filler {
      type: "constant"
      value: 0
    }
  }
}
layer {
  name: "relu3_1_stream1flow"
  type: "ReLU"
  bottom: "conv3_1_stream1flow"
  top: "conv3_1_stream1flow"
}
layer {
  name: "conv3_1_stream2flow"
  type: "Convolution"
  bottom: "pool2_stream2flow"
  top: "conv3_1_stream2flow"
  param {
    name: "conv3_1flow_w"
    lr_mult: 0.166666666667
    decay_mult: 1
  }
  param {
    name: "conv3_1flow_b"
    lr_mult: 0.333333333333
    decay_mult: 0
  }
  convolution_param {
    num_output: 256
    pad: 1
    kernel_size: 3
    weight_filler {
      type: "xavier"
    }
    bias_filler {
      type: "constant"
      value: 0
    }
  }
}
layer {
  name: "relu3_1_stream2flow"
  type: "ReLU"
  bottom: "conv3_1_stream2flow"
  top: "conv3_1_stream2flow"
}
layer {
  name: "conv3_1_stream3flow"
  type: "Convolution"
  bottom: "pool2_stream3flow"
  top: "conv3_1_stream3flow"
  param {
    name: "conv3_1flow_w"
    lr_mult: 0.166666666667
    decay_mult: 1
  }
  param {
    name: "conv3_1flow_b"
    lr_mult: 0.333333333333
    decay_mult: 0
  }
  convolution_param {
    num_output: 256
    pad: 1
    kernel_size: 3
    weight_filler {
      type: "xavier"
    }
    bias_filler {
      type: "constant"
      value: 0
    }
  }
}
layer {
  name: "relu3_1_stream3flow"
  type: "ReLU"
  bottom: "conv3_1_stream3flow"
  top: "conv3_1_stream3flow"
}
layer {
  name: "conv3_1_stream4flow"
  type: "Convolution"
  bottom: "pool2_stream4flow"
  top: "conv3_1_stream4flow"
  param {
    name: "conv3_1flow_w"
    lr_mult: 0.166666666667
    decay_mult: 1
  }
  param {
    name: "conv3_1flow_b"
    lr_mult: 0.333333333333
    decay_mult: 0
  }
  convolution_param {
    num_output: 256
    pad: 1
    kernel_size: 3
    weight_filler {
      type: "xavier"
    }
    bias_filler {
      type: "constant"
      value: 0
    }
  }
}
layer {
  name: "relu3_1_stream4flow"
  type: "ReLU"
  bottom: "conv3_1_stream4flow"
  top: "conv3_1_stream4flow"
}
layer {
  name: "conv3_1_stream5flow"
  type: "Convolution"
  bottom: "pool2_stream5flow"
  top: "conv3_1_stream5flow"
  param {
    name: "conv3_1flow_w"
    lr_mult: 0.166666666667
    decay_mult: 1
  }
  param {
    name: "conv3_1flow_b"
    lr_mult: 0.333333333333
    decay_mult: 0
  }
  convolution_param {
    num_output: 256
    pad: 1
    kernel_size: 3
    weight_filler {
      type: "xavier"
    }
    bias_filler {
      type: "constant"
      value: 0
    }
  }
}
layer {
  name: "relu3_1_stream5flow"
  type: "ReLU"
  bottom: "conv3_1_stream5flow"
  top: "conv3_1_stream5flow"
}
layer {
  name: "conv3_2_stream0flow"
  type: "Convolution"
  bottom: "conv3_1_stream0flow"
  top: "conv3_2_stream0flow"
  param {
    name: "conv3_2flow_w"
    lr_mult: 0.166666666667
    decay_mult: 1
  }
  param {
    name: "conv3_2flow_b"
    lr_mult: 0.333333333333
    decay_mult: 0
  }
  convolution_param {
    num_output: 256
    pad: 1
    kernel_size: 3
    weight_filler {
      type: "xavier"
    }
    bias_filler {
      type: "constant"
      value: 0
    }
  }
}
layer {
  name: "relu3_2_stream0flow"
  type: "ReLU"
  bottom: "conv3_2_stream0flow"
  top: "conv3_2_stream0flow"
}
layer {
  name: "conv3_2_stream1flow"
  type: "Convolution"
  bottom: "conv3_1_stream1flow"
  top: "conv3_2_stream1flow"
  param {
    name: "conv3_2flow_w"
    lr_mult: 0.166666666667
    decay_mult: 1
  }
  param {
    name: "conv3_2flow_b"
    lr_mult: 0.333333333333
    decay_mult: 0
  }
  convolution_param {
    num_output: 256
    pad: 1
    kernel_size: 3
    weight_filler {
      type: "xavier"
    }
    bias_filler {
      type: "constant"
      value: 0
    }
  }
}
layer {
  name: "relu3_2_stream1flow"
  type: "ReLU"
  bottom: "conv3_2_stream1flow"
  top: "conv3_2_stream1flow"
}
layer {
  name: "conv3_2_stream2flow"
  type: "Convolution"
  bottom: "conv3_1_stream2flow"
  top: "conv3_2_stream2flow"
  param {
    name: "conv3_2flow_w"
    lr_mult: 0.166666666667
    decay_mult: 1
  }
  param {
    name: "conv3_2flow_b"
    lr_mult: 0.333333333333
    decay_mult: 0
  }
  convolution_param {
    num_output: 256
    pad: 1
    kernel_size: 3
    weight_filler {
      type: "xavier"
    }
    bias_filler {
      type: "constant"
      value: 0
    }
  }
}
layer {
  name: "relu3_2_stream2flow"
  type: "ReLU"
  bottom: "conv3_2_stream2flow"
  top: "conv3_2_stream2flow"
}
layer {
  name: "conv3_2_stream3flow"
  type: "Convolution"
  bottom: "conv3_1_stream3flow"
  top: "conv3_2_stream3flow"
  param {
    name: "conv3_2flow_w"
    lr_mult: 0.166666666667
    decay_mult: 1
  }
  param {
    name: "conv3_2flow_b"
    lr_mult: 0.333333333333
    decay_mult: 0
  }
  convolution_param {
    num_output: 256
    pad: 1
    kernel_size: 3
    weight_filler {
      type: "xavier"
    }
    bias_filler {
      type: "constant"
      value: 0
    }
  }
}
layer {
  name: "relu3_2_stream3flow"
  type: "ReLU"
  bottom: "conv3_2_stream3flow"
  top: "conv3_2_stream3flow"
}
layer {
  name: "conv3_2_stream4flow"
  type: "Convolution"
  bottom: "conv3_1_stream4flow"
  top: "conv3_2_stream4flow"
  param {
    name: "conv3_2flow_w"
    lr_mult: 0.166666666667
    decay_mult: 1
  }
  param {
    name: "conv3_2flow_b"
    lr_mult: 0.333333333333
    decay_mult: 0
  }
  convolution_param {
    num_output: 256
    pad: 1
    kernel_size: 3
    weight_filler {
      type: "xavier"
    }
    bias_filler {
      type: "constant"
      value: 0
    }
  }
}
layer {
  name: "relu3_2_stream4flow"
  type: "ReLU"
  bottom: "conv3_2_stream4flow"
  top: "conv3_2_stream4flow"
}
layer {
  name: "conv3_2_stream5flow"
  type: "Convolution"
  bottom: "conv3_1_stream5flow"
  top: "conv3_2_stream5flow"
  param {
    name: "conv3_2flow_w"
    lr_mult: 0.166666666667
    decay_mult: 1
  }
  param {
    name: "conv3_2flow_b"
    lr_mult: 0.333333333333
    decay_mult: 0
  }
  convolution_param {
    num_output: 256
    pad: 1
    kernel_size: 3
    weight_filler {
      type: "xavier"
    }
    bias_filler {
      type: "constant"
      value: 0
    }
  }
}
layer {
  name: "relu3_2_stream5flow"
  type: "ReLU"
  bottom: "conv3_2_stream5flow"
  top: "conv3_2_stream5flow"
}
layer {
  name: "conv3_3_stream0flow"
  type: "Convolution"
  bottom: "conv3_2_stream0flow"
  top: "conv3_3_stream0flow"
  param {
    name: "conv3_3flow_w"
    lr_mult: 0.166666666667
    decay_mult: 1
  }
  param {
    name: "conv3_3flow_b"
    lr_mult: 0.333333333333
    decay_mult: 0
  }
  convolution_param {
    num_output: 256
    pad: 1
    kernel_size: 3
    weight_filler {
      type: "xavier"
    }
    bias_filler {
      type: "constant"
      value: 0
    }
  }
}
layer {
  name: "relu3_3_stream0flow"
  type: "ReLU"
  bottom: "conv3_3_stream0flow"
  top: "conv3_3_stream0flow"
}
layer {
  name: "conv3_3_stream1flow"
  type: "Convolution"
  bottom: "conv3_2_stream1flow"
  top: "conv3_3_stream1flow"
  param {
    name: "conv3_3flow_w"
    lr_mult: 0.166666666667
    decay_mult: 1
  }
  param {
    name: "conv3_3flow_b"
    lr_mult: 0.333333333333
    decay_mult: 0
  }
  convolution_param {
    num_output: 256
    pad: 1
    kernel_size: 3
    weight_filler {
      type: "xavier"
    }
    bias_filler {
      type: "constant"
      value: 0
    }
  }
}
layer {
  name: "relu3_3_stream1flow"
  type: "ReLU"
  bottom: "conv3_3_stream1flow"
  top: "conv3_3_stream1flow"
}
layer {
  name: "conv3_3_stream2flow"
  type: "Convolution"
  bottom: "conv3_2_stream2flow"
  top: "conv3_3_stream2flow"
  param {
    name: "conv3_3flow_w"
    lr_mult: 0.166666666667
    decay_mult: 1
  }
  param {
    name: "conv3_3flow_b"
    lr_mult: 0.333333333333
    decay_mult: 0
  }
  convolution_param {
    num_output: 256
    pad: 1
    kernel_size: 3
    weight_filler {
      type: "xavier"
    }
    bias_filler {
      type: "constant"
      value: 0
    }
  }
}
layer {
  name: "relu3_3_stream2flow"
  type: "ReLU"
  bottom: "conv3_3_stream2flow"
  top: "conv3_3_stream2flow"
}
layer {
  name: "conv3_3_stream3flow"
  type: "Convolution"
  bottom: "conv3_2_stream3flow"
  top: "conv3_3_stream3flow"
  param {
    name: "conv3_3flow_w"
    lr_mult: 0.166666666667
    decay_mult: 1
  }
  param {
    name: "conv3_3flow_b"
    lr_mult: 0.333333333333
    decay_mult: 0
  }
  convolution_param {
    num_output: 256
    pad: 1
    kernel_size: 3
    weight_filler {
      type: "xavier"
    }
    bias_filler {
      type: "constant"
      value: 0
    }
  }
}
layer {
  name: "relu3_3_stream3flow"
  type: "ReLU"
  bottom: "conv3_3_stream3flow"
  top: "conv3_3_stream3flow"
}
layer {
  name: "conv3_3_stream4flow"
  type: "Convolution"
  bottom: "conv3_2_stream4flow"
  top: "conv3_3_stream4flow"
  param {
    name: "conv3_3flow_w"
    lr_mult: 0.166666666667
    decay_mult: 1
  }
  param {
    name: "conv3_3flow_b"
    lr_mult: 0.333333333333
    decay_mult: 0
  }
  convolution_param {
    num_output: 256
    pad: 1
    kernel_size: 3
    weight_filler {
      type: "xavier"
    }
    bias_filler {
      type: "constant"
      value: 0
    }
  }
}
layer {
  name: "relu3_3_stream4flow"
  type: "ReLU"
  bottom: "conv3_3_stream4flow"
  top: "conv3_3_stream4flow"
}
layer {
  name: "conv3_3_stream5flow"
  type: "Convolution"
  bottom: "conv3_2_stream5flow"
  top: "conv3_3_stream5flow"
  param {
    name: "conv3_3flow_w"
    lr_mult: 0.166666666667
    decay_mult: 1
  }
  param {
    name: "conv3_3flow_b"
    lr_mult: 0.333333333333
    decay_mult: 0
  }
  convolution_param {
    num_output: 256
    pad: 1
    kernel_size: 3
    weight_filler {
      type: "xavier"
    }
    bias_filler {
      type: "constant"
      value: 0
    }
  }
}
layer {
  name: "relu3_3_stream5flow"
  type: "ReLU"
  bottom: "conv3_3_stream5flow"
  top: "conv3_3_stream5flow"
}
layer {
  name: "pool3_stream0flow"
  type: "Pooling"
  bottom: "conv3_3_stream0flow"
  top: "pool3_stream0flow"
  pooling_param {
    pool: MAX
    kernel_size: 2
    stride: 2
  }
}
layer {
  name: "pool3_stream1flow"
  type: "Pooling"
  bottom: "conv3_3_stream1flow"
  top: "pool3_stream1flow"
  pooling_param {
    pool: MAX
    kernel_size: 2
    stride: 2
  }
}
layer {
  name: "pool3_stream2flow"
  type: "Pooling"
  bottom: "conv3_3_stream2flow"
  top: "pool3_stream2flow"
  pooling_param {
    pool: MAX
    kernel_size: 2
    stride: 2
  }
}
layer {
  name: "pool3_stream3flow"
  type: "Pooling"
  bottom: "conv3_3_stream3flow"
  top: "pool3_stream3flow"
  pooling_param {
    pool: MAX
    kernel_size: 2
    stride: 2
  }
}
layer {
  name: "pool3_stream4flow"
  type: "Pooling"
  bottom: "conv3_3_stream4flow"
  top: "pool3_stream4flow"
  pooling_param {
    pool: MAX
    kernel_size: 2
    stride: 2
  }
}
layer {
  name: "pool3_stream5flow"
  type: "Pooling"
  bottom: "conv3_3_stream5flow"
  top: "pool3_stream5flow"
  pooling_param {
    pool: MAX
    kernel_size: 2
    stride: 2
  }
}
layer {
  name: "conv4_1_stream0flow"
  type: "Convolution"
  bottom: "pool3_stream0flow"
  top: "conv4_1_stream0flow"
  param {
    name: "conv4_1flow_w"
    lr_mult: 0.166666666667
    decay_mult: 1
  }
  param {
    name: "conv4_1flow_b"
    lr_mult: 0.333333333333
    decay_mult: 0
  }
  convolution_param {
    num_output: 512
    pad: 1
    kernel_size: 3
    weight_filler {
      type: "xavier"
    }
    bias_filler {
      type: "constant"
      value: 0
    }
  }
}
layer {
  name: "relu4_1_stream0flow"
  type: "ReLU"
  bottom: "conv4_1_stream0flow"
  top: "conv4_1_stream0flow"
}
layer {
  name: "conv4_1_stream1flow"
  type: "Convolution"
  bottom: "pool3_stream1flow"
  top: "conv4_1_stream1flow"
  param {
    name: "conv4_1flow_w"
    lr_mult: 0.166666666667
    decay_mult: 1
  }
  param {
    name: "conv4_1flow_b"
    lr_mult: 0.333333333333
    decay_mult: 0
  }
  convolution_param {
    num_output: 512
    pad: 1
    kernel_size: 3
    weight_filler {
      type: "xavier"
    }
    bias_filler {
      type: "constant"
      value: 0
    }
  }
}
layer {
  name: "relu4_1_stream1flow"
  type: "ReLU"
  bottom: "conv4_1_stream1flow"
  top: "conv4_1_stream1flow"
}
layer {
  name: "conv4_1_stream2flow"
  type: "Convolution"
  bottom: "pool3_stream2flow"
  top: "conv4_1_stream2flow"
  param {
    name: "conv4_1flow_w"
    lr_mult: 0.166666666667
    decay_mult: 1
  }
  param {
    name: "conv4_1flow_b"
    lr_mult: 0.333333333333
    decay_mult: 0
  }
  convolution_param {
    num_output: 512
    pad: 1
    kernel_size: 3
    weight_filler {
      type: "xavier"
    }
    bias_filler {
      type: "constant"
      value: 0
    }
  }
}
layer {
  name: "relu4_1_stream2flow"
  type: "ReLU"
  bottom: "conv4_1_stream2flow"
  top: "conv4_1_stream2flow"
}
layer {
  name: "conv4_1_stream3flow"
  type: "Convolution"
  bottom: "pool3_stream3flow"
  top: "conv4_1_stream3flow"
  param {
    name: "conv4_1flow_w"
    lr_mult: 0.166666666667
    decay_mult: 1
  }
  param {
    name: "conv4_1flow_b"
    lr_mult: 0.333333333333
    decay_mult: 0
  }
  convolution_param {
    num_output: 512
    pad: 1
    kernel_size: 3
    weight_filler {
      type: "xavier"
    }
    bias_filler {
      type: "constant"
      value: 0
    }
  }
}
layer {
  name: "relu4_1_stream3flow"
  type: "ReLU"
  bottom: "conv4_1_stream3flow"
  top: "conv4_1_stream3flow"
}
layer {
  name: "conv4_1_stream4flow"
  type: "Convolution"
  bottom: "pool3_stream4flow"
  top: "conv4_1_stream4flow"
  param {
    name: "conv4_1flow_w"
    lr_mult: 0.166666666667
    decay_mult: 1
  }
  param {
    name: "conv4_1flow_b"
    lr_mult: 0.333333333333
    decay_mult: 0
  }
  convolution_param {
    num_output: 512
    pad: 1
    kernel_size: 3
    weight_filler {
      type: "xavier"
    }
    bias_filler {
      type: "constant"
      value: 0
    }
  }
}
layer {
  name: "relu4_1_stream4flow"
  type: "ReLU"
  bottom: "conv4_1_stream4flow"
  top: "conv4_1_stream4flow"
}
layer {
  name: "conv4_1_stream5flow"
  type: "Convolution"
  bottom: "pool3_stream5flow"
  top: "conv4_1_stream5flow"
  param {
    name: "conv4_1flow_w"
    lr_mult: 0.166666666667
    decay_mult: 1
  }
  param {
    name: "conv4_1flow_b"
    lr_mult: 0.333333333333
    decay_mult: 0
  }
  convolution_param {
    num_output: 512
    pad: 1
    kernel_size: 3
    weight_filler {
      type: "xavier"
    }
    bias_filler {
      type: "constant"
      value: 0
    }
  }
}
layer {
  name: "relu4_1_stream5flow"
  type: "ReLU"
  bottom: "conv4_1_stream5flow"
  top: "conv4_1_stream5flow"
}
layer {
  name: "conv4_2_stream0flow"
  type: "Convolution"
  bottom: "conv4_1_stream0flow"
  top: "conv4_2_stream0flow"
  param {
    name: "conv4_2flow_w"
    lr_mult: 0.166666666667
    decay_mult: 1
  }
  param {
    name: "conv4_2flow_b"
    lr_mult: 0.333333333333
    decay_mult: 0
  }
  convolution_param {
    num_output: 512
    pad: 1
    kernel_size: 3
    weight_filler {
      type: "xavier"
    }
    bias_filler {
      type: "constant"
      value: 0
    }
  }
}
layer {
  name: "relu4_2_stream0flow"
  type: "ReLU"
  bottom: "conv4_2_stream0flow"
  top: "conv4_2_stream0flow"
}
layer {
  name: "conv4_2_stream1flow"
  type: "Convolution"
  bottom: "conv4_1_stream1flow"
  top: "conv4_2_stream1flow"
  param {
    name: "conv4_2flow_w"
    lr_mult: 0.166666666667
    decay_mult: 1
  }
  param {
    name: "conv4_2flow_b"
    lr_mult: 0.333333333333
    decay_mult: 0
  }
  convolution_param {
    num_output: 512
    pad: 1
    kernel_size: 3
    weight_filler {
      type: "xavier"
    }
    bias_filler {
      type: "constant"
      value: 0
    }
  }
}
layer {
  name: "relu4_2_stream1flow"
  type: "ReLU"
  bottom: "conv4_2_stream1flow"
  top: "conv4_2_stream1flow"
}
layer {
  name: "conv4_2_stream2flow"
  type: "Convolution"
  bottom: "conv4_1_stream2flow"
  top: "conv4_2_stream2flow"
  param {
    name: "conv4_2flow_w"
    lr_mult: 0.166666666667
    decay_mult: 1
  }
  param {
    name: "conv4_2flow_b"
    lr_mult: 0.333333333333
    decay_mult: 0
  }
  convolution_param {
    num_output: 512
    pad: 1
    kernel_size: 3
    weight_filler {
      type: "xavier"
    }
    bias_filler {
      type: "constant"
      value: 0
    }
  }
}
layer {
  name: "relu4_2_stream2flow"
  type: "ReLU"
  bottom: "conv4_2_stream2flow"
  top: "conv4_2_stream2flow"
}
layer {
  name: "conv4_2_stream3flow"
  type: "Convolution"
  bottom: "conv4_1_stream3flow"
  top: "conv4_2_stream3flow"
  param {
    name: "conv4_2flow_w"
    lr_mult: 0.166666666667
    decay_mult: 1
  }
  param {
    name: "conv4_2flow_b"
    lr_mult: 0.333333333333
    decay_mult: 0
  }
  convolution_param {
    num_output: 512
    pad: 1
    kernel_size: 3
    weight_filler {
      type: "xavier"
    }
    bias_filler {
      type: "constant"
      value: 0
    }
  }
}
layer {
  name: "relu4_2_stream3flow"
  type: "ReLU"
  bottom: "conv4_2_stream3flow"
  top: "conv4_2_stream3flow"
}
layer {
  name: "conv4_2_stream4flow"
  type: "Convolution"
  bottom: "conv4_1_stream4flow"
  top: "conv4_2_stream4flow"
  param {
    name: "conv4_2flow_w"
    lr_mult: 0.166666666667
    decay_mult: 1
  }
  param {
    name: "conv4_2flow_b"
    lr_mult: 0.333333333333
    decay_mult: 0
  }
  convolution_param {
    num_output: 512
    pad: 1
    kernel_size: 3
    weight_filler {
      type: "xavier"
    }
    bias_filler {
      type: "constant"
      value: 0
    }
  }
}
layer {
  name: "relu4_2_stream4flow"
  type: "ReLU"
  bottom: "conv4_2_stream4flow"
  top: "conv4_2_stream4flow"
}
layer {
  name: "conv4_2_stream5flow"
  type: "Convolution"
  bottom: "conv4_1_stream5flow"
  top: "conv4_2_stream5flow"
  param {
    name: "conv4_2flow_w"
    lr_mult: 0.166666666667
    decay_mult: 1
  }
  param {
    name: "conv4_2flow_b"
    lr_mult: 0.333333333333
    decay_mult: 0
  }
  convolution_param {
    num_output: 512
    pad: 1
    kernel_size: 3
    weight_filler {
      type: "xavier"
    }
    bias_filler {
      type: "constant"
      value: 0
    }
  }
}
layer {
  name: "relu4_2_stream5flow"
  type: "ReLU"
  bottom: "conv4_2_stream5flow"
  top: "conv4_2_stream5flow"
}
layer {
  name: "conv4_3_stream0flow"
  type: "Convolution"
  bottom: "conv4_2_stream0flow"
  top: "conv4_3_stream0flow"
  param {
    name: "conv4_3flow_w"
    lr_mult: 0.166666666667
    decay_mult: 1
  }
  param {
    name: "conv4_3flow_b"
    lr_mult: 0.333333333333
    decay_mult: 0
  }
  convolution_param {
    num_output: 512
    pad: 1
    kernel_size: 3
    weight_filler {
      type: "xavier"
    }
    bias_filler {
      type: "constant"
      value: 0
    }
  }
}
layer {
  name: "relu4_3_stream0flow"
  type: "ReLU"
  bottom: "conv4_3_stream0flow"
  top: "conv4_3_stream0flow"
}
layer {
  name: "conv4_3_stream1flow"
  type: "Convolution"
  bottom: "conv4_2_stream1flow"
  top: "conv4_3_stream1flow"
  param {
    name: "conv4_3flow_w"
    lr_mult: 0.166666666667
    decay_mult: 1
  }
  param {
    name: "conv4_3flow_b"
    lr_mult: 0.333333333333
    decay_mult: 0
  }
  convolution_param {
    num_output: 512
    pad: 1
    kernel_size: 3
    weight_filler {
      type: "xavier"
    }
    bias_filler {
      type: "constant"
      value: 0
    }
  }
}
layer {
  name: "relu4_3_stream1flow"
  type: "ReLU"
  bottom: "conv4_3_stream1flow"
  top: "conv4_3_stream1flow"
}
layer {
  name: "conv4_3_stream2flow"
  type: "Convolution"
  bottom: "conv4_2_stream2flow"
  top: "conv4_3_stream2flow"
  param {
    name: "conv4_3flow_w"
    lr_mult: 0.166666666667
    decay_mult: 1
  }
  param {
    name: "conv4_3flow_b"
    lr_mult: 0.333333333333
    decay_mult: 0
  }
  convolution_param {
    num_output: 512
    pad: 1
    kernel_size: 3
    weight_filler {
      type: "xavier"
    }
    bias_filler {
      type: "constant"
      value: 0
    }
  }
}
layer {
  name: "relu4_3_stream2flow"
  type: "ReLU"
  bottom: "conv4_3_stream2flow"
  top: "conv4_3_stream2flow"
}
layer {
  name: "conv4_3_stream3flow"
  type: "Convolution"
  bottom: "conv4_2_stream3flow"
  top: "conv4_3_stream3flow"
  param {
    name: "conv4_3flow_w"
    lr_mult: 0.166666666667
    decay_mult: 1
  }
  param {
    name: "conv4_3flow_b"
    lr_mult: 0.333333333333
    decay_mult: 0
  }
  convolution_param {
    num_output: 512
    pad: 1
    kernel_size: 3
    weight_filler {
      type: "xavier"
    }
    bias_filler {
      type: "constant"
      value: 0
    }
  }
}
layer {
  name: "relu4_3_stream3flow"
  type: "ReLU"
  bottom: "conv4_3_stream3flow"
  top: "conv4_3_stream3flow"
}
layer {
  name: "conv4_3_stream4flow"
  type: "Convolution"
  bottom: "conv4_2_stream4flow"
  top: "conv4_3_stream4flow"
  param {
    name: "conv4_3flow_w"
    lr_mult: 0.166666666667
    decay_mult: 1
  }
  param {
    name: "conv4_3flow_b"
    lr_mult: 0.333333333333
    decay_mult: 0
  }
  convolution_param {
    num_output: 512
    pad: 1
    kernel_size: 3
    weight_filler {
      type: "xavier"
    }
    bias_filler {
      type: "constant"
      value: 0
    }
  }
}
layer {
  name: "relu4_3_stream4flow"
  type: "ReLU"
  bottom: "conv4_3_stream4flow"
  top: "conv4_3_stream4flow"
}
layer {
  name: "conv4_3_stream5flow"
  type: "Convolution"
  bottom: "conv4_2_stream5flow"
  top: "conv4_3_stream5flow"
  param {
    name: "conv4_3flow_w"
    lr_mult: 0.166666666667
    decay_mult: 1
  }
  param {
    name: "conv4_3flow_b"
    lr_mult: 0.333333333333
    decay_mult: 0
  }
  convolution_param {
    num_output: 512
    pad: 1
    kernel_size: 3
    weight_filler {
      type: "xavier"
    }
    bias_filler {
      type: "constant"
      value: 0
    }
  }
}
layer {
  name: "relu4_3_stream5flow"
  type: "ReLU"
  bottom: "conv4_3_stream5flow"
  top: "conv4_3_stream5flow"
}
layer {
  name: "pool4_stream0flow"
  type: "Pooling"
  bottom: "conv4_3_stream0flow"
  top: "pool4_stream0flow"
  pooling_param {
    pool: MAX
    kernel_size: 2
    stride: 2
  }
}
layer {
  name: "pool4_stream1flow"
  type: "Pooling"
  bottom: "conv4_3_stream1flow"
  top: "pool4_stream1flow"
  pooling_param {
    pool: MAX
    kernel_size: 2
    stride: 2
  }
}
layer {
  name: "pool4_stream2flow"
  type: "Pooling"
  bottom: "conv4_3_stream2flow"
  top: "pool4_stream2flow"
  pooling_param {
    pool: MAX
    kernel_size: 2
    stride: 2
  }
}
layer {
  name: "pool4_stream3flow"
  type: "Pooling"
  bottom: "conv4_3_stream3flow"
  top: "pool4_stream3flow"
  pooling_param {
    pool: MAX
    kernel_size: 2
    stride: 2
  }
}
layer {
  name: "pool4_stream4flow"
  type: "Pooling"
  bottom: "conv4_3_stream4flow"
  top: "pool4_stream4flow"
  pooling_param {
    pool: MAX
    kernel_size: 2
    stride: 2
  }
}
layer {
  name: "pool4_stream5flow"
  type: "Pooling"
  bottom: "conv4_3_stream5flow"
  top: "pool4_stream5flow"
  pooling_param {
    pool: MAX
    kernel_size: 2
    stride: 2
  }
}
layer {
  name: "conv5_1_stream0flow"
  type: "Convolution"
  bottom: "pool4_stream0flow"
  top: "conv5_1_stream0flow"
  param {
    name: "conv5_1flow_w"
    lr_mult: 0.166666666667
    decay_mult: 1
  }
  param {
    name: "conv5_1flow_b"
    lr_mult: 0.333333333333
    decay_mult: 0
  }
  convolution_param {
    num_output: 512
    pad: 1
    kernel_size: 3
    weight_filler {
      type: "xavier"
    }
    bias_filler {
      type: "constant"
      value: 0
    }
    dilation: 1
  }
}
layer {
  name: "relu5_1_stream0flow"
  type: "ReLU"
  bottom: "conv5_1_stream0flow"
  top: "conv5_1_stream0flow"
}
layer {
  name: "conv5_1_stream1flow"
  type: "Convolution"
  bottom: "pool4_stream1flow"
  top: "conv5_1_stream1flow"
  param {
    name: "conv5_1flow_w"
    lr_mult: 0.166666666667
    decay_mult: 1
  }
  param {
    name: "conv5_1flow_b"
    lr_mult: 0.333333333333
    decay_mult: 0
  }
  convolution_param {
    num_output: 512
    pad: 1
    kernel_size: 3
    weight_filler {
      type: "xavier"
    }
    bias_filler {
      type: "constant"
      value: 0
    }
    dilation: 1
  }
}
layer {
  name: "relu5_1_stream1flow"
  type: "ReLU"
  bottom: "conv5_1_stream1flow"
  top: "conv5_1_stream1flow"
}
layer {
  name: "conv5_1_stream2flow"
  type: "Convolution"
  bottom: "pool4_stream2flow"
  top: "conv5_1_stream2flow"
  param {
    name: "conv5_1flow_w"
    lr_mult: 0.166666666667
    decay_mult: 1
  }
  param {
    name: "conv5_1flow_b"
    lr_mult: 0.333333333333
    decay_mult: 0
  }
  convolution_param {
    num_output: 512
    pad: 1
    kernel_size: 3
    weight_filler {
      type: "xavier"
    }
    bias_filler {
      type: "constant"
      value: 0
    }
    dilation: 1
  }
}
layer {
  name: "relu5_1_stream2flow"
  type: "ReLU"
  bottom: "conv5_1_stream2flow"
  top: "conv5_1_stream2flow"
}
layer {
  name: "conv5_1_stream3flow"
  type: "Convolution"
  bottom: "pool4_stream3flow"
  top: "conv5_1_stream3flow"
  param {
    name: "conv5_1flow_w"
    lr_mult: 0.166666666667
    decay_mult: 1
  }
  param {
    name: "conv5_1flow_b"
    lr_mult: 0.333333333333
    decay_mult: 0
  }
  convolution_param {
    num_output: 512
    pad: 1
    kernel_size: 3
    weight_filler {
      type: "xavier"
    }
    bias_filler {
      type: "constant"
      value: 0
    }
    dilation: 1
  }
}
layer {
  name: "relu5_1_stream3flow"
  type: "ReLU"
  bottom: "conv5_1_stream3flow"
  top: "conv5_1_stream3flow"
}
layer {
  name: "conv5_1_stream4flow"
  type: "Convolution"
  bottom: "pool4_stream4flow"
  top: "conv5_1_stream4flow"
  param {
    name: "conv5_1flow_w"
    lr_mult: 0.166666666667
    decay_mult: 1
  }
  param {
    name: "conv5_1flow_b"
    lr_mult: 0.333333333333
    decay_mult: 0
  }
  convolution_param {
    num_output: 512
    pad: 1
    kernel_size: 3
    weight_filler {
      type: "xavier"
    }
    bias_filler {
      type: "constant"
      value: 0
    }
    dilation: 1
  }
}
layer {
  name: "relu5_1_stream4flow"
  type: "ReLU"
  bottom: "conv5_1_stream4flow"
  top: "conv5_1_stream4flow"
}
layer {
  name: "conv5_1_stream5flow"
  type: "Convolution"
  bottom: "pool4_stream5flow"
  top: "conv5_1_stream5flow"
  param {
    name: "conv5_1flow_w"
    lr_mult: 0.166666666667
    decay_mult: 1
  }
  param {
    name: "conv5_1flow_b"
    lr_mult: 0.333333333333
    decay_mult: 0
  }
  convolution_param {
    num_output: 512
    pad: 1
    kernel_size: 3
    weight_filler {
      type: "xavier"
    }
    bias_filler {
      type: "constant"
      value: 0
    }
    dilation: 1
  }
}
layer {
  name: "relu5_1_stream5flow"
  type: "ReLU"
  bottom: "conv5_1_stream5flow"
  top: "conv5_1_stream5flow"
}
layer {
  name: "conv5_2_stream0flow"
  type: "Convolution"
  bottom: "conv5_1_stream0flow"
  top: "conv5_2_stream0flow"
  param {
    name: "conv5_2flow_w"
    lr_mult: 0.166666666667
    decay_mult: 1
  }
  param {
    name: "conv5_2flow_b"
    lr_mult: 0.333333333333
    decay_mult: 0
  }
  convolution_param {
    num_output: 512
    pad: 1
    kernel_size: 3
    weight_filler {
      type: "xavier"
    }
    bias_filler {
      type: "constant"
      value: 0
    }
    dilation: 1
  }
}
layer {
  name: "relu5_2_stream0flow"
  type: "ReLU"
  bottom: "conv5_2_stream0flow"
  top: "conv5_2_stream0flow"
}
layer {
  name: "conv5_2_stream1flow"
  type: "Convolution"
  bottom: "conv5_1_stream1flow"
  top: "conv5_2_stream1flow"
  param {
    name: "conv5_2flow_w"
    lr_mult: 0.166666666667
    decay_mult: 1
  }
  param {
    name: "conv5_2flow_b"
    lr_mult: 0.333333333333
    decay_mult: 0
  }
  convolution_param {
    num_output: 512
    pad: 1
    kernel_size: 3
    weight_filler {
      type: "xavier"
    }
    bias_filler {
      type: "constant"
      value: 0
    }
    dilation: 1
  }
}
layer {
  name: "relu5_2_stream1flow"
  type: "ReLU"
  bottom: "conv5_2_stream1flow"
  top: "conv5_2_stream1flow"
}
layer {
  name: "conv5_2_stream2flow"
  type: "Convolution"
  bottom: "conv5_1_stream2flow"
  top: "conv5_2_stream2flow"
  param {
    name: "conv5_2flow_w"
    lr_mult: 0.166666666667
    decay_mult: 1
  }
  param {
    name: "conv5_2flow_b"
    lr_mult: 0.333333333333
    decay_mult: 0
  }
  convolution_param {
    num_output: 512
    pad: 1
    kernel_size: 3
    weight_filler {
      type: "xavier"
    }
    bias_filler {
      type: "constant"
      value: 0
    }
    dilation: 1
  }
}
layer {
  name: "relu5_2_stream2flow"
  type: "ReLU"
  bottom: "conv5_2_stream2flow"
  top: "conv5_2_stream2flow"
}
layer {
  name: "conv5_2_stream3flow"
  type: "Convolution"
  bottom: "conv5_1_stream3flow"
  top: "conv5_2_stream3flow"
  param {
    name: "conv5_2flow_w"
    lr_mult: 0.166666666667
    decay_mult: 1
  }
  param {
    name: "conv5_2flow_b"
    lr_mult: 0.333333333333
    decay_mult: 0
  }
  convolution_param {
    num_output: 512
    pad: 1
    kernel_size: 3
    weight_filler {
      type: "xavier"
    }
    bias_filler {
      type: "constant"
      value: 0
    }
    dilation: 1
  }
}
layer {
  name: "relu5_2_stream3flow"
  type: "ReLU"
  bottom: "conv5_2_stream3flow"
  top: "conv5_2_stream3flow"
}
layer {
  name: "conv5_2_stream4flow"
  type: "Convolution"
  bottom: "conv5_1_stream4flow"
  top: "conv5_2_stream4flow"
  param {
    name: "conv5_2flow_w"
    lr_mult: 0.166666666667
    decay_mult: 1
  }
  param {
    name: "conv5_2flow_b"
    lr_mult: 0.333333333333
    decay_mult: 0
  }
  convolution_param {
    num_output: 512
    pad: 1
    kernel_size: 3
    weight_filler {
      type: "xavier"
    }
    bias_filler {
      type: "constant"
      value: 0
    }
    dilation: 1
  }
}
layer {
  name: "relu5_2_stream4flow"
  type: "ReLU"
  bottom: "conv5_2_stream4flow"
  top: "conv5_2_stream4flow"
}
layer {
  name: "conv5_2_stream5flow"
  type: "Convolution"
  bottom: "conv5_1_stream5flow"
  top: "conv5_2_stream5flow"
  param {
    name: "conv5_2flow_w"
    lr_mult: 0.166666666667
    decay_mult: 1
  }
  param {
    name: "conv5_2flow_b"
    lr_mult: 0.333333333333
    decay_mult: 0
  }
  convolution_param {
    num_output: 512
    pad: 1
    kernel_size: 3
    weight_filler {
      type: "xavier"
    }
    bias_filler {
      type: "constant"
      value: 0
    }
    dilation: 1
  }
}
layer {
  name: "relu5_2_stream5flow"
  type: "ReLU"
  bottom: "conv5_2_stream5flow"
  top: "conv5_2_stream5flow"
}
layer {
  name: "conv5_3_stream0flow"
  type: "Convolution"
  bottom: "conv5_2_stream0flow"
  top: "conv5_3_stream0flow"
  param {
    name: "conv5_3flow_w"
    lr_mult: 0.166666666667
    decay_mult: 1
  }
  param {
    name: "conv5_3flow_b"
    lr_mult: 0.333333333333
    decay_mult: 0
  }
  convolution_param {
    num_output: 512
    pad: 1
    kernel_size: 3
    weight_filler {
      type: "xavier"
    }
    bias_filler {
      type: "constant"
      value: 0
    }
    dilation: 1
  }
}
layer {
  name: "relu5_3_stream0flow"
  type: "ReLU"
  bottom: "conv5_3_stream0flow"
  top: "conv5_3_stream0flow"
}
layer {
  name: "conv5_3_stream1flow"
  type: "Convolution"
  bottom: "conv5_2_stream1flow"
  top: "conv5_3_stream1flow"
  param {
    name: "conv5_3flow_w"
    lr_mult: 0.166666666667
    decay_mult: 1
  }
  param {
    name: "conv5_3flow_b"
    lr_mult: 0.333333333333
    decay_mult: 0
  }
  convolution_param {
    num_output: 512
    pad: 1
    kernel_size: 3
    weight_filler {
      type: "xavier"
    }
    bias_filler {
      type: "constant"
      value: 0
    }
    dilation: 1
  }
}
layer {
  name: "relu5_3_stream1flow"
  type: "ReLU"
  bottom: "conv5_3_stream1flow"
  top: "conv5_3_stream1flow"
}
layer {
  name: "conv5_3_stream2flow"
  type: "Convolution"
  bottom: "conv5_2_stream2flow"
  top: "conv5_3_stream2flow"
  param {
    name: "conv5_3flow_w"
    lr_mult: 0.166666666667
    decay_mult: 1
  }
  param {
    name: "conv5_3flow_b"
    lr_mult: 0.333333333333
    decay_mult: 0
  }
  convolution_param {
    num_output: 512
    pad: 1
    kernel_size: 3
    weight_filler {
      type: "xavier"
    }
    bias_filler {
      type: "constant"
      value: 0
    }
    dilation: 1
  }
}
layer {
  name: "relu5_3_stream2flow"
  type: "ReLU"
  bottom: "conv5_3_stream2flow"
  top: "conv5_3_stream2flow"
}
layer {
  name: "conv5_3_stream3flow"
  type: "Convolution"
  bottom: "conv5_2_stream3flow"
  top: "conv5_3_stream3flow"
  param {
    name: "conv5_3flow_w"
    lr_mult: 0.166666666667
    decay_mult: 1
  }
  param {
    name: "conv5_3flow_b"
    lr_mult: 0.333333333333
    decay_mult: 0
  }
  convolution_param {
    num_output: 512
    pad: 1
    kernel_size: 3
    weight_filler {
      type: "xavier"
    }
    bias_filler {
      type: "constant"
      value: 0
    }
    dilation: 1
  }
}
layer {
  name: "relu5_3_stream3flow"
  type: "ReLU"
  bottom: "conv5_3_stream3flow"
  top: "conv5_3_stream3flow"
}
layer {
  name: "conv5_3_stream4flow"
  type: "Convolution"
  bottom: "conv5_2_stream4flow"
  top: "conv5_3_stream4flow"
  param {
    name: "conv5_3flow_w"
    lr_mult: 0.166666666667
    decay_mult: 1
  }
  param {
    name: "conv5_3flow_b"
    lr_mult: 0.333333333333
    decay_mult: 0
  }
  convolution_param {
    num_output: 512
    pad: 1
    kernel_size: 3
    weight_filler {
      type: "xavier"
    }
    bias_filler {
      type: "constant"
      value: 0
    }
    dilation: 1
  }
}
layer {
  name: "relu5_3_stream4flow"
  type: "ReLU"
  bottom: "conv5_3_stream4flow"
  top: "conv5_3_stream4flow"
}
layer {
  name: "conv5_3_stream5flow"
  type: "Convolution"
  bottom: "conv5_2_stream5flow"
  top: "conv5_3_stream5flow"
  param {
    name: "conv5_3flow_w"
    lr_mult: 0.166666666667
    decay_mult: 1
  }
  param {
    name: "conv5_3flow_b"
    lr_mult: 0.333333333333
    decay_mult: 0
  }
  convolution_param {
    num_output: 512
    pad: 1
    kernel_size: 3
    weight_filler {
      type: "xavier"
    }
    bias_filler {
      type: "constant"
      value: 0
    }
    dilation: 1
  }
}
layer {
  name: "relu5_3_stream5flow"
  type: "ReLU"
  bottom: "conv5_3_stream5flow"
  top: "conv5_3_stream5flow"
}
layer {
  name: "pool5_stream0flow"
  type: "Pooling"
  bottom: "conv5_3_stream0flow"
  top: "pool5_stream0flow"
  pooling_param {
    pool: MAX
    kernel_size: 2
    stride: 1
  }
}
layer {
  name: "fc6_stream0flow"
  type: "Convolution"
  bottom: "pool5_stream0flow"
  top: "fc6_stream0flow"
  param {
    name: "fc6flow_w"
    lr_mult: 0.166666666667
    decay_mult: 1
  }
  param {
    name: "fc6flow_b"
    lr_mult: 0.333333333333
    decay_mult: 0
  }
  convolution_param {
    num_output: 1024
    pad: 6
    kernel_size: 3
    weight_filler {
      type: "xavier"
    }
    bias_filler {
      type: "constant"
      value: 0
    }
    dilation: 6
  }
}
layer {
  name: "relu6_stream0flow"
  type: "ReLU"
  bottom: "fc6_stream0flow"
  top: "fc6_stream0flow"
}
layer {
  name: "fc7_stream0flow"
  type: "Convolution"
  bottom: "fc6_stream0flow"
  top: "fc7_stream0flow"
  param {
    name: "fc7flow_w"
    lr_mult: 0.166666666667
    decay_mult: 1
  }
  param {
    name: "fc7flow_b"
    lr_mult: 0.333333333333
    decay_mult: 0
  }
  convolution_param {
    num_output: 1024
    kernel_size: 1
    weight_filler {
      type: "xavier"
    }
    bias_filler {
      type: "constant"
      value: 0
    }
  }
}
layer {
  name: "relu7_stream0flow"
  type: "ReLU"
  bottom: "fc7_stream0flow"
  top: "fc7_stream0flow"
}
layer {
  name: "pool5_stream1flow"
  type: "Pooling"
  bottom: "conv5_3_stream1flow"
  top: "pool5_stream1flow"
  pooling_param {
    pool: MAX
    kernel_size: 2
    stride: 1
  }
}
layer {
  name: "fc6_stream1flow"
  type: "Convolution"
  bottom: "pool5_stream1flow"
  top: "fc6_stream1flow"
  param {
    name: "fc6flow_w"
    lr_mult: 0.166666666667
    decay_mult: 1
  }
  param {
    name: "fc6flow_b"
    lr_mult: 0.333333333333
    decay_mult: 0
  }
  convolution_param {
    num_output: 1024
    pad: 36
    kernel_size: 3
    weight_filler {
      type: "xavier"
    }
    bias_filler {
      type: "constant"
      value: 0
    }
    dilation: 36
  }
}
layer {
  name: "relu6_stream1flow"
  type: "ReLU"
  bottom: "fc6_stream1flow"
  top: "fc6_stream1flow"
}
layer {
  name: "fc7_stream1flow"
  type: "Convolution"
  bottom: "fc6_stream1flow"
  top: "fc7_stream1flow"
  param {
    name: "fc7flow_w"
    lr_mult: 0.166666666667
    decay_mult: 1
  }
  param {
    name: "fc7flow_b"
    lr_mult: 0.333333333333
    decay_mult: 0
  }
  convolution_param {
    num_output: 1024
    kernel_size: 1
    weight_filler {
      type: "xavier"
    }
    bias_filler {
      type: "constant"
      value: 0
    }
  }
}
layer {
  name: "relu7_stream1flow"
  type: "ReLU"
  bottom: "fc7_stream1flow"
  top: "fc7_stream1flow"
}
layer {
  name: "pool5_stream2flow"
  type: "Pooling"
  bottom: "conv5_3_stream2flow"
  top: "pool5_stream2flow"
  pooling_param {
    pool: MAX
    kernel_size: 2
    stride: 1
  }
}
layer {
  name: "fc6_stream2flow"
  type: "Convolution"
  bottom: "pool5_stream2flow"
  top: "fc6_stream2flow"
  param {
    name: "fc6flow_w"
    lr_mult: 0.166666666667
    decay_mult: 1
  }
  param {
    name: "fc6flow_b"
    lr_mult: 0.333333333333
    decay_mult: 0
  }
  convolution_param {
    num_output: 1024
    pad: 216
    kernel_size: 3
    weight_filler {
      type: "xavier"
    }
    bias_filler {
      type: "constant"
      value: 0
    }
    dilation: 216
  }
}
layer {
  name: "relu6_stream2flow"
  type: "ReLU"
  bottom: "fc6_stream2flow"
  top: "fc6_stream2flow"
}
layer {
  name: "fc7_stream2flow"
  type: "Convolution"
  bottom: "fc6_stream2flow"
  top: "fc7_stream2flow"
  param {
    name: "fc7flow_w"
    lr_mult: 0.166666666667
    decay_mult: 1
  }
  param {
    name: "fc7flow_b"
    lr_mult: 0.333333333333
    decay_mult: 0
  }
  convolution_param {
    num_output: 1024
    kernel_size: 1
    weight_filler {
      type: "xavier"
    }
    bias_filler {
      type: "constant"
      value: 0
    }
  }
}
layer {
  name: "relu7_stream2flow"
  type: "ReLU"
  bottom: "fc7_stream2flow"
  top: "fc7_stream2flow"
}
layer {
  name: "pool5_stream3flow"
  type: "Pooling"
  bottom: "conv5_3_stream3flow"
  top: "pool5_stream3flow"
  pooling_param {
    pool: MAX
    kernel_size: 2
    stride: 1
  }
}
layer {
  name: "fc6_stream3flow"
  type: "Convolution"
  bottom: "pool5_stream3flow"
  top: "fc6_stream3flow"
  param {
    name: "fc6flow_w"
    lr_mult: 0.166666666667
    decay_mult: 1
  }
  param {
    name: "fc6flow_b"
    lr_mult: 0.333333333333
    decay_mult: 0
  }
  convolution_param {
    num_output: 1024
    pad: 1296
    kernel_size: 3
    weight_filler {
      type: "xavier"
    }
    bias_filler {
      type: "constant"
      value: 0
    }
    dilation: 1296
  }
}
layer {
  name: "relu6_stream3flow"
  type: "ReLU"
  bottom: "fc6_stream3flow"
  top: "fc6_stream3flow"
}
layer {
  name: "fc7_stream3flow"
  type: "Convolution"
  bottom: "fc6_stream3flow"
  top: "fc7_stream3flow"
  param {
    name: "fc7flow_w"
    lr_mult: 0.166666666667
    decay_mult: 1
  }
  param {
    name: "fc7flow_b"
    lr_mult: 0.333333333333
    decay_mult: 0
  }
  convolution_param {
    num_output: 1024
    kernel_size: 1
    weight_filler {
      type: "xavier"
    }
    bias_filler {
      type: "constant"
      value: 0
    }
  }
}
layer {
  name: "relu7_stream3flow"
  type: "ReLU"
  bottom: "fc7_stream3flow"
  top: "fc7_stream3flow"
}
layer {
  name: "pool5_stream4flow"
  type: "Pooling"
  bottom: "conv5_3_stream4flow"
  top: "pool5_stream4flow"
  pooling_param {
    pool: MAX
    kernel_size: 2
    stride: 1
  }
}
layer {
  name: "fc6_stream4flow"
  type: "Convolution"
  bottom: "pool5_stream4flow"
  top: "fc6_stream4flow"
  param {
    name: "fc6flow_w"
    lr_mult: 0.166666666667
    decay_mult: 1
  }
  param {
    name: "fc6flow_b"
    lr_mult: 0.333333333333
    decay_mult: 0
  }
  convolution_param {
    num_output: 1024
    pad: 7776
    kernel_size: 3
    weight_filler {
      type: "xavier"
    }
    bias_filler {
      type: "constant"
      value: 0
    }
    dilation: 7776
  }
}
layer {
  name: "relu6_stream4flow"
  type: "ReLU"
  bottom: "fc6_stream4flow"
  top: "fc6_stream4flow"
}
layer {
  name: "fc7_stream4flow"
  type: "Convolution"
  bottom: "fc6_stream4flow"
  top: "fc7_stream4flow"
  param {
    name: "fc7flow_w"
    lr_mult: 0.166666666667
    decay_mult: 1
  }
  param {
    name: "fc7flow_b"
    lr_mult: 0.333333333333
    decay_mult: 0
  }
  convolution_param {
    num_output: 1024
    kernel_size: 1
    weight_filler {
      type: "xavier"
    }
    bias_filler {
      type: "constant"
      value: 0
    }
  }
}
layer {
  name: "relu7_stream4flow"
  type: "ReLU"
  bottom: "fc7_stream4flow"
  top: "fc7_stream4flow"
}
layer {
  name: "pool5_stream5flow"
  type: "Pooling"
  bottom: "conv5_3_stream5flow"
  top: "pool5_stream5flow"
  pooling_param {
    pool: MAX
    kernel_size: 2
    stride: 1
  }
}
layer {
  name: "fc6_stream5flow"
  type: "Convolution"
  bottom: "pool5_stream5flow"
  top: "fc6_stream5flow"
  param {
    name: "fc6flow_w"
    lr_mult: 0.166666666667
    decay_mult: 1
  }
  param {
    name: "fc6flow_b"
    lr_mult: 0.333333333333
    decay_mult: 0
  }
  convolution_param {
    num_output: 1024
    pad: 46656
    kernel_size: 3
    weight_filler {
      type: "xavier"
    }
    bias_filler {
      type: "constant"
      value: 0
    }
    dilation: 46656
  }
}
layer {
  name: "relu6_stream5flow"
  type: "ReLU"
  bottom: "fc6_stream5flow"
  top: "fc6_stream5flow"
}
layer {
  name: "fc7_stream5flow"
  type: "Convolution"
  bottom: "fc6_stream5flow"
  top: "fc7_stream5flow"
  param {
    name: "fc7flow_w"
    lr_mult: 0.166666666667
    decay_mult: 1
  }
  param {
    name: "fc7flow_b"
    lr_mult: 0.333333333333
    decay_mult: 0
  }
  convolution_param {
    num_output: 1024
    kernel_size: 1
    weight_filler {
      type: "xavier"
    }
    bias_filler {
      type: "constant"
      value: 0
    }
  }
}
layer {
  name: "relu7_stream5flow"
  type: "ReLU"
  bottom: "fc7_stream5flow"
  top: "fc7_stream5flow"
}
layer {
  name: "conv6_1_stream0flow"
  type: "Convolution"
  bottom: "fc7_stream0flow"
  top: "conv6_1_stream0flow"
  param {
    name: "conv6_1flow_w"
    lr_mult: 0.166666666667
    decay_mult: 1
  }
  param {
    name: "conv6_1flow_b"
    lr_mult: 0.333333333333
    decay_mult: 0
  }
  convolution_param {
    num_output: 256
    pad: 0
    kernel_size: 1
    stride: 1
    weight_filler {
      type: "xavier"
    }
    bias_filler {
      type: "constant"
      value: 0
    }
  }
}
layer {
  name: "conv6_1_stream0flow_relu"
  type: "ReLU"
  bottom: "conv6_1_stream0flow"
  top: "conv6_1_stream0flow"
}
layer {
  name: "conv6_2_stream0flow"
  type: "Convolution"
  bottom: "conv6_1_stream0flow"
  top: "conv6_2_stream0flow"
  param {
    name: "conv6_2flow_w"
    lr_mult: 0.166666666667
    decay_mult: 1
  }
  param {
    name: "conv6_2flow_b"
    lr_mult: 0.333333333333
    decay_mult: 0
  }
  convolution_param {
    num_output: 512
    pad: 1
    kernel_size: 3
    stride: 2
    weight_filler {
      type: "xavier"
    }
    bias_filler {
      type: "constant"
      value: 0
    }
  }
}
layer {
  name: "conv6_2_stream0flow_relu"
  type: "ReLU"
  bottom: "conv6_2_stream0flow"
  top: "conv6_2_stream0flow"
}
layer {
  name: "conv7_1_stream0flow"
  type: "Convolution"
  bottom: "conv6_2_stream0flow"
  top: "conv7_1_stream0flow"
  param {
    name: "conv7_1flow_w"
    lr_mult: 0.166666666667
    decay_mult: 1
  }
  param {
    name: "conv7_1flow_b"
    lr_mult: 0.333333333333
    decay_mult: 0
  }
  convolution_param {
    num_output: 128
    pad: 0
    kernel_size: 1
    stride: 1
    weight_filler {
      type: "xavier"
    }
    bias_filler {
      type: "constant"
      value: 0
    }
  }
}
layer {
  name: "conv7_1_stream0flow_relu"
  type: "ReLU"
  bottom: "conv7_1_stream0flow"
  top: "conv7_1_stream0flow"
}
layer {
  name: "conv7_2_stream0flow"
  type: "Convolution"
  bottom: "conv7_1_stream0flow"
  top: "conv7_2_stream0flow"
  param {
    name: "conv7_2flow_w"
    lr_mult: 0.166666666667
    decay_mult: 1
  }
  param {
    name: "conv7_2flow_b"
    lr_mult: 0.333333333333
    decay_mult: 0
  }
  convolution_param {
    num_output: 256
    pad: 1
    kernel_size: 3
    stride: 2
    weight_filler {
      type: "xavier"
    }
    bias_filler {
      type: "constant"
      value: 0
    }
  }
}
layer {
  name: "conv7_2_stream0flow_relu"
  type: "ReLU"
  bottom: "conv7_2_stream0flow"
  top: "conv7_2_stream0flow"
}
layer {
  name: "conv8_1_stream0flow"
  type: "Convolution"
  bottom: "conv7_2_stream0flow"
  top: "conv8_1_stream0flow"
  param {
    name: "conv8_1flow_w"
    lr_mult: 0.166666666667
    decay_mult: 1
  }
  param {
    name: "conv8_1flow_b"
    lr_mult: 0.333333333333
    decay_mult: 0
  }
  convolution_param {
    num_output: 128
    pad: 0
    kernel_size: 1
    stride: 1
    weight_filler {
      type: "xavier"
    }
    bias_filler {
      type: "constant"
      value: 0
    }
  }
}
layer {
  name: "conv8_1_stream0flow_relu"
  type: "ReLU"
  bottom: "conv8_1_stream0flow"
  top: "conv8_1_stream0flow"
}
layer {
  name: "conv8_2_stream0flow"
  type: "Convolution"
  bottom: "conv8_1_stream0flow"
  top: "conv8_2_stream0flow"
  param {
    name: "conv8_2flow_w"
    lr_mult: 0.166666666667
    decay_mult: 1
  }
  param {
    name: "conv8_2flow_b"
    lr_mult: 0.333333333333
    decay_mult: 0
  }
  convolution_param {
    num_output: 256
    pad: 0
    kernel_size: 3
    stride: 1
    weight_filler {
      type: "xavier"
    }
    bias_filler {
      type: "constant"
      value: 0
    }
  }
}
layer {
  name: "conv8_2_stream0flow_relu"
  type: "ReLU"
  bottom: "conv8_2_stream0flow"
  top: "conv8_2_stream0flow"
}
layer {
  name: "conv9_1_stream0flow"
  type: "Convolution"
  bottom: "conv8_2_stream0flow"
  top: "conv9_1_stream0flow"
  param {
    name: "conv9_1flow_w"
    lr_mult: 0.166666666667
    decay_mult: 1
  }
  param {
    name: "conv9_1flow_b"
    lr_mult: 0.333333333333
    decay_mult: 0
  }
  convolution_param {
    num_output: 128
    pad: 0
    kernel_size: 1
    stride: 1
    weight_filler {
      type: "xavier"
    }
    bias_filler {
      type: "constant"
      value: 0
    }
  }
}
layer {
  name: "conv9_1_stream0flow_relu"
  type: "ReLU"
  bottom: "conv9_1_stream0flow"
  top: "conv9_1_stream0flow"
}
layer {
  name: "conv9_2_stream0flow"
  type: "Convolution"
  bottom: "conv9_1_stream0flow"
  top: "conv9_2_stream0flow"
  param {
    name: "conv9_2flow_w"
    lr_mult: 0.166666666667
    decay_mult: 1
  }
  param {
    name: "conv9_2flow_b"
    lr_mult: 0.333333333333
    decay_mult: 0
  }
  convolution_param {
    num_output: 256
    pad: 0
    kernel_size: 3
    stride: 1
    weight_filler {
      type: "xavier"
    }
    bias_filler {
      type: "constant"
      value: 0
    }
  }
}
layer {
  name: "conv9_2_stream0flow_relu"
  type: "ReLU"
  bottom: "conv9_2_stream0flow"
  top: "conv9_2_stream0flow"
}
layer {
  name: "conv6_1_stream1flow"
  type: "Convolution"
  bottom: "fc7_stream1flow"
  top: "conv6_1_stream1flow"
  param {
    name: "conv6_1flow_w"
    lr_mult: 0.166666666667
    decay_mult: 1
  }
  param {
    name: "conv6_1flow_b"
    lr_mult: 0.333333333333
    decay_mult: 0
  }
  convolution_param {
    num_output: 256
    pad: 0
    kernel_size: 1
    stride: 1
    weight_filler {
      type: "xavier"
    }
    bias_filler {
      type: "constant"
      value: 0
    }
  }
}
layer {
  name: "conv6_1_stream1flow_relu"
  type: "ReLU"
  bottom: "conv6_1_stream1flow"
  top: "conv6_1_stream1flow"
}
layer {
  name: "conv6_2_stream1flow"
  type: "Convolution"
  bottom: "conv6_1_stream1flow"
  top: "conv6_2_stream1flow"
  param {
    name: "conv6_2flow_w"
    lr_mult: 0.166666666667
    decay_mult: 1
  }
  param {
    name: "conv6_2flow_b"
    lr_mult: 0.333333333333
    decay_mult: 0
  }
  convolution_param {
    num_output: 512
    pad: 1
    kernel_size: 3
    stride: 2
    weight_filler {
      type: "xavier"
    }
    bias_filler {
      type: "constant"
      value: 0
    }
  }
}
layer {
  name: "conv6_2_stream1flow_relu"
  type: "ReLU"
  bottom: "conv6_2_stream1flow"
  top: "conv6_2_stream1flow"
}
layer {
  name: "conv7_1_stream1flow"
  type: "Convolution"
  bottom: "conv6_2_stream1flow"
  top: "conv7_1_stream1flow"
  param {
    name: "conv7_1flow_w"
    lr_mult: 0.166666666667
    decay_mult: 1
  }
  param {
    name: "conv7_1flow_b"
    lr_mult: 0.333333333333
    decay_mult: 0
  }
  convolution_param {
    num_output: 128
    pad: 0
    kernel_size: 1
    stride: 1
    weight_filler {
      type: "xavier"
    }
    bias_filler {
      type: "constant"
      value: 0
    }
  }
}
layer {
  name: "conv7_1_stream1flow_relu"
  type: "ReLU"
  bottom: "conv7_1_stream1flow"
  top: "conv7_1_stream1flow"
}
layer {
  name: "conv7_2_stream1flow"
  type: "Convolution"
  bottom: "conv7_1_stream1flow"
  top: "conv7_2_stream1flow"
  param {
    name: "conv7_2flow_w"
    lr_mult: 0.166666666667
    decay_mult: 1
  }
  param {
    name: "conv7_2flow_b"
    lr_mult: 0.333333333333
    decay_mult: 0
  }
  convolution_param {
    num_output: 256
    pad: 1
    kernel_size: 3
    stride: 2
    weight_filler {
      type: "xavier"
    }
    bias_filler {
      type: "constant"
      value: 0
    }
  }
}
layer {
  name: "conv7_2_stream1flow_relu"
  type: "ReLU"
  bottom: "conv7_2_stream1flow"
  top: "conv7_2_stream1flow"
}
layer {
  name: "conv8_1_stream1flow"
  type: "Convolution"
  bottom: "conv7_2_stream1flow"
  top: "conv8_1_stream1flow"
  param {
    name: "conv8_1flow_w"
    lr_mult: 0.166666666667
    decay_mult: 1
  }
  param {
    name: "conv8_1flow_b"
    lr_mult: 0.333333333333
    decay_mult: 0
  }
  convolution_param {
    num_output: 128
    pad: 0
    kernel_size: 1
    stride: 1
    weight_filler {
      type: "xavier"
    }
    bias_filler {
      type: "constant"
      value: 0
    }
  }
}
layer {
  name: "conv8_1_stream1flow_relu"
  type: "ReLU"
  bottom: "conv8_1_stream1flow"
  top: "conv8_1_stream1flow"
}
layer {
  name: "conv8_2_stream1flow"
  type: "Convolution"
  bottom: "conv8_1_stream1flow"
  top: "conv8_2_stream1flow"
  param {
    name: "conv8_2flow_w"
    lr_mult: 0.166666666667
    decay_mult: 1
  }
  param {
    name: "conv8_2flow_b"
    lr_mult: 0.333333333333
    decay_mult: 0
  }
  convolution_param {
    num_output: 256
    pad: 0
    kernel_size: 3
    stride: 1
    weight_filler {
      type: "xavier"
    }
    bias_filler {
      type: "constant"
      value: 0
    }
  }
}
layer {
  name: "conv8_2_stream1flow_relu"
  type: "ReLU"
  bottom: "conv8_2_stream1flow"
  top: "conv8_2_stream1flow"
}
layer {
  name: "conv9_1_stream1flow"
  type: "Convolution"
  bottom: "conv8_2_stream1flow"
  top: "conv9_1_stream1flow"
  param {
    name: "conv9_1flow_w"
    lr_mult: 0.166666666667
    decay_mult: 1
  }
  param {
    name: "conv9_1flow_b"
    lr_mult: 0.333333333333
    decay_mult: 0
  }
  convolution_param {
    num_output: 128
    pad: 0
    kernel_size: 1
    stride: 1
    weight_filler {
      type: "xavier"
    }
    bias_filler {
      type: "constant"
      value: 0
    }
  }
}
layer {
  name: "conv9_1_stream1flow_relu"
  type: "ReLU"
  bottom: "conv9_1_stream1flow"
  top: "conv9_1_stream1flow"
}
layer {
  name: "conv9_2_stream1flow"
  type: "Convolution"
  bottom: "conv9_1_stream1flow"
  top: "conv9_2_stream1flow"
  param {
    name: "conv9_2flow_w"
    lr_mult: 0.166666666667
    decay_mult: 1
  }
  param {
    name: "conv9_2flow_b"
    lr_mult: 0.333333333333
    decay_mult: 0
  }
  convolution_param {
    num_output: 256
    pad: 0
    kernel_size: 3
    stride: 1
    weight_filler {
      type: "xavier"
    }
    bias_filler {
      type: "constant"
      value: 0
    }
  }
}
layer {
  name: "conv9_2_stream1flow_relu"
  type: "ReLU"
  bottom: "conv9_2_stream1flow"
  top: "conv9_2_stream1flow"
}
layer {
  name: "conv6_1_stream2flow"
  type: "Convolution"
  bottom: "fc7_stream2flow"
  top: "conv6_1_stream2flow"
  param {
    name: "conv6_1flow_w"
    lr_mult: 0.166666666667
    decay_mult: 1
  }
  param {
    name: "conv6_1flow_b"
    lr_mult: 0.333333333333
    decay_mult: 0
  }
  convolution_param {
    num_output: 256
    pad: 0
    kernel_size: 1
    stride: 1
    weight_filler {
      type: "xavier"
    }
    bias_filler {
      type: "constant"
      value: 0
    }
  }
}
layer {
  name: "conv6_1_stream2flow_relu"
  type: "ReLU"
  bottom: "conv6_1_stream2flow"
  top: "conv6_1_stream2flow"
}
layer {
  name: "conv6_2_stream2flow"
  type: "Convolution"
  bottom: "conv6_1_stream2flow"
  top: "conv6_2_stream2flow"
  param {
    name: "conv6_2flow_w"
    lr_mult: 0.166666666667
    decay_mult: 1
  }
  param {
    name: "conv6_2flow_b"
    lr_mult: 0.333333333333
    decay_mult: 0
  }
  convolution_param {
    num_output: 512
    pad: 1
    kernel_size: 3
    stride: 2
    weight_filler {
      type: "xavier"
    }
    bias_filler {
      type: "constant"
      value: 0
    }
  }
}
layer {
  name: "conv6_2_stream2flow_relu"
  type: "ReLU"
  bottom: "conv6_2_stream2flow"
  top: "conv6_2_stream2flow"
}
layer {
  name: "conv7_1_stream2flow"
  type: "Convolution"
  bottom: "conv6_2_stream2flow"
  top: "conv7_1_stream2flow"
  param {
    name: "conv7_1flow_w"
    lr_mult: 0.166666666667
    decay_mult: 1
  }
  param {
    name: "conv7_1flow_b"
    lr_mult: 0.333333333333
    decay_mult: 0
  }
  convolution_param {
    num_output: 128
    pad: 0
    kernel_size: 1
    stride: 1
    weight_filler {
      type: "xavier"
    }
    bias_filler {
      type: "constant"
      value: 0
    }
  }
}
layer {
  name: "conv7_1_stream2flow_relu"
  type: "ReLU"
  bottom: "conv7_1_stream2flow"
  top: "conv7_1_stream2flow"
}
layer {
  name: "conv7_2_stream2flow"
  type: "Convolution"
  bottom: "conv7_1_stream2flow"
  top: "conv7_2_stream2flow"
  param {
    name: "conv7_2flow_w"
    lr_mult: 0.166666666667
    decay_mult: 1
  }
  param {
    name: "conv7_2flow_b"
    lr_mult: 0.333333333333
    decay_mult: 0
  }
  convolution_param {
    num_output: 256
    pad: 1
    kernel_size: 3
    stride: 2
    weight_filler {
      type: "xavier"
    }
    bias_filler {
      type: "constant"
      value: 0
    }
  }
}
layer {
  name: "conv7_2_stream2flow_relu"
  type: "ReLU"
  bottom: "conv7_2_stream2flow"
  top: "conv7_2_stream2flow"
}
layer {
  name: "conv8_1_stream2flow"
  type: "Convolution"
  bottom: "conv7_2_stream2flow"
  top: "conv8_1_stream2flow"
  param {
    name: "conv8_1flow_w"
    lr_mult: 0.166666666667
    decay_mult: 1
  }
  param {
    name: "conv8_1flow_b"
    lr_mult: 0.333333333333
    decay_mult: 0
  }
  convolution_param {
    num_output: 128
    pad: 0
    kernel_size: 1
    stride: 1
    weight_filler {
      type: "xavier"
    }
    bias_filler {
      type: "constant"
      value: 0
    }
  }
}
layer {
  name: "conv8_1_stream2flow_relu"
  type: "ReLU"
  bottom: "conv8_1_stream2flow"
  top: "conv8_1_stream2flow"
}
layer {
  name: "conv8_2_stream2flow"
  type: "Convolution"
  bottom: "conv8_1_stream2flow"
  top: "conv8_2_stream2flow"
  param {
    name: "conv8_2flow_w"
    lr_mult: 0.166666666667
    decay_mult: 1
  }
  param {
    name: "conv8_2flow_b"
    lr_mult: 0.333333333333
    decay_mult: 0
  }
  convolution_param {
    num_output: 256
    pad: 0
    kernel_size: 3
    stride: 1
    weight_filler {
      type: "xavier"
    }
    bias_filler {
      type: "constant"
      value: 0
    }
  }
}
layer {
  name: "conv8_2_stream2flow_relu"
  type: "ReLU"
  bottom: "conv8_2_stream2flow"
  top: "conv8_2_stream2flow"
}
layer {
  name: "conv9_1_stream2flow"
  type: "Convolution"
  bottom: "conv8_2_stream2flow"
  top: "conv9_1_stream2flow"
  param {
    name: "conv9_1flow_w"
    lr_mult: 0.166666666667
    decay_mult: 1
  }
  param {
    name: "conv9_1flow_b"
    lr_mult: 0.333333333333
    decay_mult: 0
  }
  convolution_param {
    num_output: 128
    pad: 0
    kernel_size: 1
    stride: 1
    weight_filler {
      type: "xavier"
    }
    bias_filler {
      type: "constant"
      value: 0
    }
  }
}
layer {
  name: "conv9_1_stream2flow_relu"
  type: "ReLU"
  bottom: "conv9_1_stream2flow"
  top: "conv9_1_stream2flow"
}
layer {
  name: "conv9_2_stream2flow"
  type: "Convolution"
  bottom: "conv9_1_stream2flow"
  top: "conv9_2_stream2flow"
  param {
    name: "conv9_2flow_w"
    lr_mult: 0.166666666667
    decay_mult: 1
  }
  param {
    name: "conv9_2flow_b"
    lr_mult: 0.333333333333
    decay_mult: 0
  }
  convolution_param {
    num_output: 256
    pad: 0
    kernel_size: 3
    stride: 1
    weight_filler {
      type: "xavier"
    }
    bias_filler {
      type: "constant"
      value: 0
    }
  }
}
layer {
  name: "conv9_2_stream2flow_relu"
  type: "ReLU"
  bottom: "conv9_2_stream2flow"
  top: "conv9_2_stream2flow"
}
layer {
  name: "conv6_1_stream3flow"
  type: "Convolution"
  bottom: "fc7_stream3flow"
  top: "conv6_1_stream3flow"
  param {
    name: "conv6_1flow_w"
    lr_mult: 0.166666666667
    decay_mult: 1
  }
  param {
    name: "conv6_1flow_b"
    lr_mult: 0.333333333333
    decay_mult: 0
  }
  convolution_param {
    num_output: 256
    pad: 0
    kernel_size: 1
    stride: 1
    weight_filler {
      type: "xavier"
    }
    bias_filler {
      type: "constant"
      value: 0
    }
  }
}
layer {
  name: "conv6_1_stream3flow_relu"
  type: "ReLU"
  bottom: "conv6_1_stream3flow"
  top: "conv6_1_stream3flow"
}
layer {
  name: "conv6_2_stream3flow"
  type: "Convolution"
  bottom: "conv6_1_stream3flow"
  top: "conv6_2_stream3flow"
  param {
    name: "conv6_2flow_w"
    lr_mult: 0.166666666667
    decay_mult: 1
  }
  param {
    name: "conv6_2flow_b"
    lr_mult: 0.333333333333
    decay_mult: 0
  }
  convolution_param {
    num_output: 512
    pad: 1
    kernel_size: 3
    stride: 2
    weight_filler {
      type: "xavier"
    }
    bias_filler {
      type: "constant"
      value: 0
    }
  }
}
layer {
  name: "conv6_2_stream3flow_relu"
  type: "ReLU"
  bottom: "conv6_2_stream3flow"
  top: "conv6_2_stream3flow"
}
layer {
  name: "conv7_1_stream3flow"
  type: "Convolution"
  bottom: "conv6_2_stream3flow"
  top: "conv7_1_stream3flow"
  param {
    name: "conv7_1flow_w"
    lr_mult: 0.166666666667
    decay_mult: 1
  }
  param {
    name: "conv7_1flow_b"
    lr_mult: 0.333333333333
    decay_mult: 0
  }
  convolution_param {
    num_output: 128
    pad: 0
    kernel_size: 1
    stride: 1
    weight_filler {
      type: "xavier"
    }
    bias_filler {
      type: "constant"
      value: 0
    }
  }
}
layer {
  name: "conv7_1_stream3flow_relu"
  type: "ReLU"
  bottom: "conv7_1_stream3flow"
  top: "conv7_1_stream3flow"
}
layer {
  name: "conv7_2_stream3flow"
  type: "Convolution"
  bottom: "conv7_1_stream3flow"
  top: "conv7_2_stream3flow"
  param {
    name: "conv7_2flow_w"
    lr_mult: 0.166666666667
    decay_mult: 1
  }
  param {
    name: "conv7_2flow_b"
    lr_mult: 0.333333333333
    decay_mult: 0
  }
  convolution_param {
    num_output: 256
    pad: 1
    kernel_size: 3
    stride: 2
    weight_filler {
      type: "xavier"
    }
    bias_filler {
      type: "constant"
      value: 0
    }
  }
}
layer {
  name: "conv7_2_stream3flow_relu"
  type: "ReLU"
  bottom: "conv7_2_stream3flow"
  top: "conv7_2_stream3flow"
}
layer {
  name: "conv8_1_stream3flow"
  type: "Convolution"
  bottom: "conv7_2_stream3flow"
  top: "conv8_1_stream3flow"
  param {
    name: "conv8_1flow_w"
    lr_mult: 0.166666666667
    decay_mult: 1
  }
  param {
    name: "conv8_1flow_b"
    lr_mult: 0.333333333333
    decay_mult: 0
  }
  convolution_param {
    num_output: 128
    pad: 0
    kernel_size: 1
    stride: 1
    weight_filler {
      type: "xavier"
    }
    bias_filler {
      type: "constant"
      value: 0
    }
  }
}
layer {
  name: "conv8_1_stream3flow_relu"
  type: "ReLU"
  bottom: "conv8_1_stream3flow"
  top: "conv8_1_stream3flow"
}
layer {
  name: "conv8_2_stream3flow"
  type: "Convolution"
  bottom: "conv8_1_stream3flow"
  top: "conv8_2_stream3flow"
  param {
    name: "conv8_2flow_w"
    lr_mult: 0.166666666667
    decay_mult: 1
  }
  param {
    name: "conv8_2flow_b"
    lr_mult: 0.333333333333
    decay_mult: 0
  }
  convolution_param {
    num_output: 256
    pad: 0
    kernel_size: 3
    stride: 1
    weight_filler {
      type: "xavier"
    }
    bias_filler {
      type: "constant"
      value: 0
    }
  }
}
layer {
  name: "conv8_2_stream3flow_relu"
  type: "ReLU"
  bottom: "conv8_2_stream3flow"
  top: "conv8_2_stream3flow"
}
layer {
  name: "conv9_1_stream3flow"
  type: "Convolution"
  bottom: "conv8_2_stream3flow"
  top: "conv9_1_stream3flow"
  param {
    name: "conv9_1flow_w"
    lr_mult: 0.166666666667
    decay_mult: 1
  }
  param {
    name: "conv9_1flow_b"
    lr_mult: 0.333333333333
    decay_mult: 0
  }
  convolution_param {
    num_output: 128
    pad: 0
    kernel_size: 1
    stride: 1
    weight_filler {
      type: "xavier"
    }
    bias_filler {
      type: "constant"
      value: 0
    }
  }
}
layer {
  name: "conv9_1_stream3flow_relu"
  type: "ReLU"
  bottom: "conv9_1_stream3flow"
  top: "conv9_1_stream3flow"
}
layer {
  name: "conv9_2_stream3flow"
  type: "Convolution"
  bottom: "conv9_1_stream3flow"
  top: "conv9_2_stream3flow"
  param {
    name: "conv9_2flow_w"
    lr_mult: 0.166666666667
    decay_mult: 1
  }
  param {
    name: "conv9_2flow_b"
    lr_mult: 0.333333333333
    decay_mult: 0
  }
  convolution_param {
    num_output: 256
    pad: 0
    kernel_size: 3
    stride: 1
    weight_filler {
      type: "xavier"
    }
    bias_filler {
      type: "constant"
      value: 0
    }
  }
}
layer {
  name: "conv9_2_stream3flow_relu"
  type: "ReLU"
  bottom: "conv9_2_stream3flow"
  top: "conv9_2_stream3flow"
}
layer {
  name: "conv6_1_stream4flow"
  type: "Convolution"
  bottom: "fc7_stream4flow"
  top: "conv6_1_stream4flow"
  param {
    name: "conv6_1flow_w"
    lr_mult: 0.166666666667
    decay_mult: 1
  }
  param {
    name: "conv6_1flow_b"
    lr_mult: 0.333333333333
    decay_mult: 0
  }
  convolution_param {
    num_output: 256
    pad: 0
    kernel_size: 1
    stride: 1
    weight_filler {
      type: "xavier"
    }
    bias_filler {
      type: "constant"
      value: 0
    }
  }
}
layer {
  name: "conv6_1_stream4flow_relu"
  type: "ReLU"
  bottom: "conv6_1_stream4flow"
  top: "conv6_1_stream4flow"
}
layer {
  name: "conv6_2_stream4flow"
  type: "Convolution"
  bottom: "conv6_1_stream4flow"
  top: "conv6_2_stream4flow"
  param {
    name: "conv6_2flow_w"
    lr_mult: 0.166666666667
    decay_mult: 1
  }
  param {
    name: "conv6_2flow_b"
    lr_mult: 0.333333333333
    decay_mult: 0
  }
  convolution_param {
    num_output: 512
    pad: 1
    kernel_size: 3
    stride: 2
    weight_filler {
      type: "xavier"
    }
    bias_filler {
      type: "constant"
      value: 0
    }
  }
}
layer {
  name: "conv6_2_stream4flow_relu"
  type: "ReLU"
  bottom: "conv6_2_stream4flow"
  top: "conv6_2_stream4flow"
}
layer {
  name: "conv7_1_stream4flow"
  type: "Convolution"
  bottom: "conv6_2_stream4flow"
  top: "conv7_1_stream4flow"
  param {
    name: "conv7_1flow_w"
    lr_mult: 0.166666666667
    decay_mult: 1
  }
  param {
    name: "conv7_1flow_b"
    lr_mult: 0.333333333333
    decay_mult: 0
  }
  convolution_param {
    num_output: 128
    pad: 0
    kernel_size: 1
    stride: 1
    weight_filler {
      type: "xavier"
    }
    bias_filler {
      type: "constant"
      value: 0
    }
  }
}
layer {
  name: "conv7_1_stream4flow_relu"
  type: "ReLU"
  bottom: "conv7_1_stream4flow"
  top: "conv7_1_stream4flow"
}
layer {
  name: "conv7_2_stream4flow"
  type: "Convolution"
  bottom: "conv7_1_stream4flow"
  top: "conv7_2_stream4flow"
  param {
    name: "conv7_2flow_w"
    lr_mult: 0.166666666667
    decay_mult: 1
  }
  param {
    name: "conv7_2flow_b"
    lr_mult: 0.333333333333
    decay_mult: 0
  }
  convolution_param {
    num_output: 256
    pad: 1
    kernel_size: 3
    stride: 2
    weight_filler {
      type: "xavier"
    }
    bias_filler {
      type: "constant"
      value: 0
    }
  }
}
layer {
  name: "conv7_2_stream4flow_relu"
  type: "ReLU"
  bottom: "conv7_2_stream4flow"
  top: "conv7_2_stream4flow"
}
layer {
  name: "conv8_1_stream4flow"
  type: "Convolution"
  bottom: "conv7_2_stream4flow"
  top: "conv8_1_stream4flow"
  param {
    name: "conv8_1flow_w"
    lr_mult: 0.166666666667
    decay_mult: 1
  }
  param {
    name: "conv8_1flow_b"
    lr_mult: 0.333333333333
    decay_mult: 0
  }
  convolution_param {
    num_output: 128
    pad: 0
    kernel_size: 1
    stride: 1
    weight_filler {
      type: "xavier"
    }
    bias_filler {
      type: "constant"
      value: 0
    }
  }
}
layer {
  name: "conv8_1_stream4flow_relu"
  type: "ReLU"
  bottom: "conv8_1_stream4flow"
  top: "conv8_1_stream4flow"
}
layer {
  name: "conv8_2_stream4flow"
  type: "Convolution"
  bottom: "conv8_1_stream4flow"
  top: "conv8_2_stream4flow"
  param {
    name: "conv8_2flow_w"
    lr_mult: 0.166666666667
    decay_mult: 1
  }
  param {
    name: "conv8_2flow_b"
    lr_mult: 0.333333333333
    decay_mult: 0
  }
  convolution_param {
    num_output: 256
    pad: 0
    kernel_size: 3
    stride: 1
    weight_filler {
      type: "xavier"
    }
    bias_filler {
      type: "constant"
      value: 0
    }
  }
}
layer {
  name: "conv8_2_stream4flow_relu"
  type: "ReLU"
  bottom: "conv8_2_stream4flow"
  top: "conv8_2_stream4flow"
}
layer {
  name: "conv9_1_stream4flow"
  type: "Convolution"
  bottom: "conv8_2_stream4flow"
  top: "conv9_1_stream4flow"
  param {
    name: "conv9_1flow_w"
    lr_mult: 0.166666666667
    decay_mult: 1
  }
  param {
    name: "conv9_1flow_b"
    lr_mult: 0.333333333333
    decay_mult: 0
  }
  convolution_param {
    num_output: 128
    pad: 0
    kernel_size: 1
    stride: 1
    weight_filler {
      type: "xavier"
    }
    bias_filler {
      type: "constant"
      value: 0
    }
  }
}
layer {
  name: "conv9_1_stream4flow_relu"
  type: "ReLU"
  bottom: "conv9_1_stream4flow"
  top: "conv9_1_stream4flow"
}
layer {
  name: "conv9_2_stream4flow"
  type: "Convolution"
  bottom: "conv9_1_stream4flow"
  top: "conv9_2_stream4flow"
  param {
    name: "conv9_2flow_w"
    lr_mult: 0.166666666667
    decay_mult: 1
  }
  param {
    name: "conv9_2flow_b"
    lr_mult: 0.333333333333
    decay_mult: 0
  }
  convolution_param {
    num_output: 256
    pad: 0
    kernel_size: 3
    stride: 1
    weight_filler {
      type: "xavier"
    }
    bias_filler {
      type: "constant"
      value: 0
    }
  }
}
layer {
  name: "conv9_2_stream4flow_relu"
  type: "ReLU"
  bottom: "conv9_2_stream4flow"
  top: "conv9_2_stream4flow"
}
layer {
  name: "conv6_1_stream5flow"
  type: "Convolution"
  bottom: "fc7_stream5flow"
  top: "conv6_1_stream5flow"
  param {
    name: "conv6_1flow_w"
    lr_mult: 0.166666666667
    decay_mult: 1
  }
  param {
    name: "conv6_1flow_b"
    lr_mult: 0.333333333333
    decay_mult: 0
  }
  convolution_param {
    num_output: 256
    pad: 0
    kernel_size: 1
    stride: 1
    weight_filler {
      type: "xavier"
    }
    bias_filler {
      type: "constant"
      value: 0
    }
  }
}
layer {
  name: "conv6_1_stream5flow_relu"
  type: "ReLU"
  bottom: "conv6_1_stream5flow"
  top: "conv6_1_stream5flow"
}
layer {
  name: "conv6_2_stream5flow"
  type: "Convolution"
  bottom: "conv6_1_stream5flow"
  top: "conv6_2_stream5flow"
  param {
    name: "conv6_2flow_w"
    lr_mult: 0.166666666667
    decay_mult: 1
  }
  param {
    name: "conv6_2flow_b"
    lr_mult: 0.333333333333
    decay_mult: 0
  }
  convolution_param {
    num_output: 512
    pad: 1
    kernel_size: 3
    stride: 2
    weight_filler {
      type: "xavier"
    }
    bias_filler {
      type: "constant"
      value: 0
    }
  }
}
layer {
  name: "conv6_2_stream5flow_relu"
  type: "ReLU"
  bottom: "conv6_2_stream5flow"
  top: "conv6_2_stream5flow"
}
layer {
  name: "conv7_1_stream5flow"
  type: "Convolution"
  bottom: "conv6_2_stream5flow"
  top: "conv7_1_stream5flow"
  param {
    name: "conv7_1flow_w"
    lr_mult: 0.166666666667
    decay_mult: 1
  }
  param {
    name: "conv7_1flow_b"
    lr_mult: 0.333333333333
    decay_mult: 0
  }
  convolution_param {
    num_output: 128
    pad: 0
    kernel_size: 1
    stride: 1
    weight_filler {
      type: "xavier"
    }
    bias_filler {
      type: "constant"
      value: 0
    }
  }
}
layer {
  name: "conv7_1_stream5flow_relu"
  type: "ReLU"
  bottom: "conv7_1_stream5flow"
  top: "conv7_1_stream5flow"
}
layer {
  name: "conv7_2_stream5flow"
  type: "Convolution"
  bottom: "conv7_1_stream5flow"
  top: "conv7_2_stream5flow"
  param {
    name: "conv7_2flow_w"
    lr_mult: 0.166666666667
    decay_mult: 1
  }
  param {
    name: "conv7_2flow_b"
    lr_mult: 0.333333333333
    decay_mult: 0
  }
  convolution_param {
    num_output: 256
    pad: 1
    kernel_size: 3
    stride: 2
    weight_filler {
      type: "xavier"
    }
    bias_filler {
      type: "constant"
      value: 0
    }
  }
}
layer {
  name: "conv7_2_stream5flow_relu"
  type: "ReLU"
  bottom: "conv7_2_stream5flow"
  top: "conv7_2_stream5flow"
}
layer {
  name: "conv8_1_stream5flow"
  type: "Convolution"
  bottom: "conv7_2_stream5flow"
  top: "conv8_1_stream5flow"
  param {
    name: "conv8_1flow_w"
    lr_mult: 0.166666666667
    decay_mult: 1
  }
  param {
    name: "conv8_1flow_b"
    lr_mult: 0.333333333333
    decay_mult: 0
  }
  convolution_param {
    num_output: 128
    pad: 0
    kernel_size: 1
    stride: 1
    weight_filler {
      type: "xavier"
    }
    bias_filler {
      type: "constant"
      value: 0
    }
  }
}
layer {
  name: "conv8_1_stream5flow_relu"
  type: "ReLU"
  bottom: "conv8_1_stream5flow"
  top: "conv8_1_stream5flow"
}
layer {
  name: "conv8_2_stream5flow"
  type: "Convolution"
  bottom: "conv8_1_stream5flow"
  top: "conv8_2_stream5flow"
  param {
    name: "conv8_2flow_w"
    lr_mult: 0.166666666667
    decay_mult: 1
  }
  param {
    name: "conv8_2flow_b"
    lr_mult: 0.333333333333
    decay_mult: 0
  }
  convolution_param {
    num_output: 256
    pad: 0
    kernel_size: 3
    stride: 1
    weight_filler {
      type: "xavier"
    }
    bias_filler {
      type: "constant"
      value: 0
    }
  }
}
layer {
  name: "conv8_2_stream5flow_relu"
  type: "ReLU"
  bottom: "conv8_2_stream5flow"
  top: "conv8_2_stream5flow"
}
layer {
  name: "conv9_1_stream5flow"
  type: "Convolution"
  bottom: "conv8_2_stream5flow"
  top: "conv9_1_stream5flow"
  param {
    name: "conv9_1flow_w"
    lr_mult: 0.166666666667
    decay_mult: 1
  }
  param {
    name: "conv9_1flow_b"
    lr_mult: 0.333333333333
    decay_mult: 0
  }
  convolution_param {
    num_output: 128
    pad: 0
    kernel_size: 1
    stride: 1
    weight_filler {
      type: "xavier"
    }
    bias_filler {
      type: "constant"
      value: 0
    }
  }
}
layer {
  name: "conv9_1_stream5flow_relu"
  type: "ReLU"
  bottom: "conv9_1_stream5flow"
  top: "conv9_1_stream5flow"
}
layer {
  name: "conv9_2_stream5flow"
  type: "Convolution"
  bottom: "conv9_1_stream5flow"
  top: "conv9_2_stream5flow"
  param {
    name: "conv9_2flow_w"
    lr_mult: 0.166666666667
    decay_mult: 1
  }
  param {
    name: "conv9_2flow_b"
    lr_mult: 0.333333333333
    decay_mult: 0
  }
  convolution_param {
    num_output: 256
    pad: 0
    kernel_size: 3
    stride: 1
    weight_filler {
      type: "xavier"
    }
    bias_filler {
      type: "constant"
      value: 0
    }
  }
}
layer {
  name: "conv9_2_stream5flow_relu"
  type: "ReLU"
  bottom: "conv9_2_stream5flow"
  top: "conv9_2_stream5flow"
}
layer {
  name: "conv4_3_norm_stream0flow"
  type: "Normalize"
  bottom: "conv4_3_stream0flow"
  top: "conv4_3_norm_stream0flow"
  norm_param {
    across_spatial: false
    scale_filler {
      type: "constant"
      value: 20
    }
    channel_shared: false
  }
}
layer {
  name: "conv4_3_norm_stream1flow"
  type: "Normalize"
  bottom: "conv4_3_stream1flow"
  top: "conv4_3_norm_stream1flow"
  norm_param {
    across_spatial: false
    scale_filler {
      type: "constant"
      value: 20
    }
    channel_shared: false
  }
}
layer {
  name: "conv4_3_norm_stream2flow"
  type: "Normalize"
  bottom: "conv4_3_stream2flow"
  top: "conv4_3_norm_stream2flow"
  norm_param {
    across_spatial: false
    scale_filler {
      type: "constant"
      value: 20
    }
    channel_shared: false
  }
}
layer {
  name: "conv4_3_norm_stream3flow"
  type: "Normalize"
  bottom: "conv4_3_stream3flow"
  top: "conv4_3_norm_stream3flow"
  norm_param {
    across_spatial: false
    scale_filler {
      type: "constant"
      value: 20
    }
    channel_shared: false
  }
}
layer {
  name: "conv4_3_norm_stream4flow"
  type: "Normalize"
  bottom: "conv4_3_stream4flow"
  top: "conv4_3_norm_stream4flow"
  norm_param {
    across_spatial: false
    scale_filler {
      type: "constant"
      value: 20
    }
    channel_shared: false
  }
}
layer {
  name: "conv4_3_norm_stream5flow"
  type: "Normalize"
  bottom: "conv4_3_stream5flow"
  top: "conv4_3_norm_stream5flow"
  norm_param {
    across_spatial: false
    scale_filler {
      type: "constant"
      value: 20
    }
    channel_shared: false
  }
}
layer {
  name: "conv4_3_norm_concat"
  type: "Concat"
  bottom: "conv4_3_norm_stream0flow"
  bottom: "conv4_3_norm_stream1flow"
  bottom: "conv4_3_norm_stream2flow"
  bottom: "conv4_3_norm_stream3flow"
  bottom: "conv4_3_norm_stream4flow"
  bottom: "conv4_3_norm_stream5flow"
  top: "conv4_3_norm_concat"
  concat_param {
    axis: 1
  }
}
layer {
  name: "conv4_3_norm_concat_act_loc"
  type: "Convolution"
  bottom: "conv4_3_norm_concat"
  top: "conv4_3_norm_concat_act_loc"
  param {
    lr_mult: 1
    decay_mult: 1
  }
  param {
    lr_mult: 2
    decay_mult: 0
  }
  convolution_param {
    num_output: 96
    pad: 1
    kernel_size: 3
    stride: 1
    weight_filler {
      type: "xavier"
    }
    bias_filler {
      type: "constant"
      value: 0
    }
  }
}
layer {
  name: "conv4_3_norm_concat_act_loc_perm"
  type: "Permute"
  bottom: "conv4_3_norm_concat_act_loc"
  top: "conv4_3_norm_concat_act_loc_perm"
  permute_param {
    order: 0
    order: 2
    order: 3
    order: 1
  }
}
layer {
  name: "conv4_3_norm_concat_act_loc_flat"
  type: "Flatten"
  bottom: "conv4_3_norm_concat_act_loc_perm"
  top: "conv4_3_norm_concat_act_loc_flat"
  flatten_param {
    axis: 1
  }
}
layer {
  name: "conv4_3_norm_concat_act_conf"
  type: "Convolution"
  bottom: "conv4_3_norm_concat"
  top: "conv4_3_norm_concat_act_conf"
  param {
    lr_mult: 1
    decay_mult: 1
  }
  param {
    lr_mult: 2
    decay_mult: 0
  }
  convolution_param {
    num_output: 44
    pad: 1
    kernel_size: 3
    stride: 1
    weight_filler {
      type: "xavier"
    }
    bias_filler {
      type: "constant"
      value: 0
    }
  }
}
layer {
  name: "conv4_3_norm_concat_act_conf_perm"
  type: "Permute"
  bottom: "conv4_3_norm_concat_act_conf"
  top: "conv4_3_norm_concat_act_conf_perm"
  permute_param {
    order: 0
    order: 2
    order: 3
    order: 1
  }
}
layer {
  name: "conv4_3_norm_concat_act_conf_flat"
  type: "Flatten"
  bottom: "conv4_3_norm_concat_act_conf_perm"
  top: "conv4_3_norm_concat_act_conf_flat"
  flatten_param {
    axis: 1
  }
}
layer {
  name: "conv4_3_norm_concat_act_priorbox"
  type: "PriorBox"
  bottom: "conv4_3_norm_concat"
  bottom: "data_stream0flow"
  top: "conv4_3_norm_concat_act_priorbox"
  prior_box_param {
    min_size: 30.0
    max_size: 60.0
    aspect_ratio: 2
    flip: true
    clip: false
    variance: 0.1
    variance: 0.1
    variance: 0.2
    variance: 0.2
    step: 8
    offset: 0.5
  }
}
layer {
  name: "fc7_concat"
  type: "Concat"
  bottom: "fc7_stream0flow"
  bottom: "fc7_stream1flow"
  bottom: "fc7_stream2flow"
  bottom: "fc7_stream3flow"
  bottom: "fc7_stream4flow"
  bottom: "fc7_stream5flow"
  top: "fc7_concat"
  concat_param {
    axis: 1
  }
}
layer {
  name: "fc7_concat_act_loc"
  type: "Convolution"
  bottom: "fc7_concat"
  top: "fc7_concat_act_loc"
  param {
    lr_mult: 1
    decay_mult: 1
  }
  param {
    lr_mult: 2
    decay_mult: 0
  }
  convolution_param {
    num_output: 144
    pad: 1
    kernel_size: 3
    stride: 1
    weight_filler {
      type: "xavier"
    }
    bias_filler {
      type: "constant"
      value: 0
    }
  }
}
layer {
  name: "fc7_concat_act_loc_perm"
  type: "Permute"
  bottom: "fc7_concat_act_loc"
  top: "fc7_concat_act_loc_perm"
  permute_param {
    order: 0
    order: 2
    order: 3
    order: 1
  }
}
layer {
  name: "fc7_concat_act_loc_flat"
  type: "Flatten"
  bottom: "fc7_concat_act_loc_perm"
  top: "fc7_concat_act_loc_flat"
  flatten_param {
    axis: 1
  }
}
layer {
  name: "fc7_concat_act_conf"
  type: "Convolution"
  bottom: "fc7_concat"
  top: "fc7_concat_act_conf"
  param {
    lr_mult: 1
    decay_mult: 1
  }
  param {
    lr_mult: 2
    decay_mult: 0
  }
  convolution_param {
    num_output: 66
    pad: 1
    kernel_size: 3
    stride: 1
    weight_filler {
      type: "xavier"
    }
    bias_filler {
      type: "constant"
      value: 0
    }
  }
}
layer {
  name: "fc7_concat_act_conf_perm"
  type: "Permute"
  bottom: "fc7_concat_act_conf"
  top: "fc7_concat_act_conf_perm"
  permute_param {
    order: 0
    order: 2
    order: 3
    order: 1
  }
}
layer {
  name: "fc7_concat_act_conf_flat"
  type: "Flatten"
  bottom: "fc7_concat_act_conf_perm"
  top: "fc7_concat_act_conf_flat"
  flatten_param {
    axis: 1
  }
}
layer {
  name: "fc7_concat_act_priorbox"
  type: "PriorBox"
  bottom: "fc7_concat"
  bottom: "data_stream0flow"
  top: "fc7_concat_act_priorbox"
  prior_box_param {
    min_size: 60.0
    max_size: 111.0
    aspect_ratio: 2
    aspect_ratio: 3
    flip: true
    clip: false
    variance: 0.1
    variance: 0.1
    variance: 0.2
    variance: 0.2
    step: 16
    offset: 0.5
  }
}
layer {
  name: "conv6_2_concat"
  type: "Concat"
  bottom: "conv6_2_stream0flow"
  bottom: "conv6_2_stream1flow"
  bottom: "conv6_2_stream2flow"
  bottom: "conv6_2_stream3flow"
  bottom: "conv6_2_stream4flow"
  bottom: "conv6_2_stream5flow"
  top: "conv6_2_concat"
  concat_param {
    axis: 1
  }
}
layer {
  name: "conv6_2_concat_act_loc"
  type: "Convolution"
  bottom: "conv6_2_concat"
  top: "conv6_2_concat_act_loc"
  param {
    lr_mult: 1
    decay_mult: 1
  }
  param {
    lr_mult: 2
    decay_mult: 0
  }
  convolution_param {
    num_output: 144
    pad: 1
    kernel_size: 3
    stride: 1
    weight_filler {
      type: "xavier"
    }
    bias_filler {
      type: "constant"
      value: 0
    }
  }
}
layer {
  name: "conv6_2_concat_act_loc_perm"
  type: "Permute"
  bottom: "conv6_2_concat_act_loc"
  top: "conv6_2_concat_act_loc_perm"
  permute_param {
    order: 0
    order: 2
    order: 3
    order: 1
  }
}
layer {
  name: "conv6_2_concat_act_loc_flat"
  type: "Flatten"
  bottom: "conv6_2_concat_act_loc_perm"
  top: "conv6_2_concat_act_loc_flat"
  flatten_param {
    axis: 1
  }
}
layer {
  name: "conv6_2_concat_act_conf"
  type: "Convolution"
  bottom: "conv6_2_concat"
  top: "conv6_2_concat_act_conf"
  param {
    lr_mult: 1
    decay_mult: 1
  }
  param {
    lr_mult: 2
    decay_mult: 0
  }
  convolution_param {
    num_output: 66
    pad: 1
    kernel_size: 3
    stride: 1
    weight_filler {
      type: "xavier"
    }
    bias_filler {
      type: "constant"
      value: 0
    }
  }
}
layer {
  name: "conv6_2_concat_act_conf_perm"
  type: "Permute"
  bottom: "conv6_2_concat_act_conf"
  top: "conv6_2_concat_act_conf_perm"
  permute_param {
    order: 0
    order: 2
    order: 3
    order: 1
  }
}
layer {
  name: "conv6_2_concat_act_conf_flat"
  type: "Flatten"
  bottom: "conv6_2_concat_act_conf_perm"
  top: "conv6_2_concat_act_conf_flat"
  flatten_param {
    axis: 1
  }
}
layer {
  name: "conv6_2_concat_act_priorbox"
  type: "PriorBox"
  bottom: "conv6_2_concat"
  bottom: "data_stream0flow"
  top: "conv6_2_concat_act_priorbox"
  prior_box_param {
    min_size: 111.0
    max_size: 162.0
    aspect_ratio: 2
    aspect_ratio: 3
    flip: true
    clip: false
    variance: 0.1
    variance: 0.1
    variance: 0.2
    variance: 0.2
    step: 32
    offset: 0.5
  }
}
layer {
  name: "conv7_2_concat"
  type: "Concat"
  bottom: "conv7_2_stream0flow"
  bottom: "conv7_2_stream1flow"
  bottom: "conv7_2_stream2flow"
  bottom: "conv7_2_stream3flow"
  bottom: "conv7_2_stream4flow"
  bottom: "conv7_2_stream5flow"
  top: "conv7_2_concat"
  concat_param {
    axis: 1
  }
}
layer {
  name: "conv7_2_concat_act_loc"
  type: "Convolution"
  bottom: "conv7_2_concat"
  top: "conv7_2_concat_act_loc"
  param {
    lr_mult: 1
    decay_mult: 1
  }
  param {
    lr_mult: 2
    decay_mult: 0
  }
  convolution_param {
    num_output: 144
    pad: 1
    kernel_size: 3
    stride: 1
    weight_filler {
      type: "xavier"
    }
    bias_filler {
      type: "constant"
      value: 0
    }
  }
}
layer {
  name: "conv7_2_concat_act_loc_perm"
  type: "Permute"
  bottom: "conv7_2_concat_act_loc"
  top: "conv7_2_concat_act_loc_perm"
  permute_param {
    order: 0
    order: 2
    order: 3
    order: 1
  }
}
layer {
  name: "conv7_2_concat_act_loc_flat"
  type: "Flatten"
  bottom: "conv7_2_concat_act_loc_perm"
  top: "conv7_2_concat_act_loc_flat"
  flatten_param {
    axis: 1
  }
}
layer {
  name: "conv7_2_concat_act_conf"
  type: "Convolution"
  bottom: "conv7_2_concat"
  top: "conv7_2_concat_act_conf"
  param {
    lr_mult: 1
    decay_mult: 1
  }
  param {
    lr_mult: 2
    decay_mult: 0
  }
  convolution_param {
    num_output: 66
    pad: 1
    kernel_size: 3
    stride: 1
    weight_filler {
      type: "xavier"
    }
    bias_filler {
      type: "constant"
      value: 0
    }
  }
}
layer {
  name: "conv7_2_concat_act_conf_perm"
  type: "Permute"
  bottom: "conv7_2_concat_act_conf"
  top: "conv7_2_concat_act_conf_perm"
  permute_param {
    order: 0
    order: 2
    order: 3
    order: 1
  }
}
layer {
  name: "conv7_2_concat_act_conf_flat"
  type: "Flatten"
  bottom: "conv7_2_concat_act_conf_perm"
  top: "conv7_2_concat_act_conf_flat"
  flatten_param {
    axis: 1
  }
}
layer {
  name: "conv7_2_concat_act_priorbox"
  type: "PriorBox"
  bottom: "conv7_2_concat"
  bottom: "data_stream0flow"
  top: "conv7_2_concat_act_priorbox"
  prior_box_param {
    min_size: 162.0
    max_size: 213.0
    aspect_ratio: 2
    aspect_ratio: 3
    flip: true
    clip: false
    variance: 0.1
    variance: 0.1
    variance: 0.2
    variance: 0.2
    step: 64
    offset: 0.5
  }
}
layer {
  name: "conv8_2_concat"
  type: "Concat"
  bottom: "conv8_2_stream0flow"
  bottom: "conv8_2_stream1flow"
  bottom: "conv8_2_stream2flow"
  bottom: "conv8_2_stream3flow"
  bottom: "conv8_2_stream4flow"
  bottom: "conv8_2_stream5flow"
  top: "conv8_2_concat"
  concat_param {
    axis: 1
  }
}
layer {
  name: "conv8_2_concat_act_loc"
  type: "Convolution"
  bottom: "conv8_2_concat"
  top: "conv8_2_concat_act_loc"
  param {
    lr_mult: 1
    decay_mult: 1
  }
  param {
    lr_mult: 2
    decay_mult: 0
  }
  convolution_param {
    num_output: 96
    pad: 1
    kernel_size: 3
    stride: 1
    weight_filler {
      type: "xavier"
    }
    bias_filler {
      type: "constant"
      value: 0
    }
  }
}
layer {
  name: "conv8_2_concat_act_loc_perm"
  type: "Permute"
  bottom: "conv8_2_concat_act_loc"
  top: "conv8_2_concat_act_loc_perm"
  permute_param {
    order: 0
    order: 2
    order: 3
    order: 1
  }
}
layer {
  name: "conv8_2_concat_act_loc_flat"
  type: "Flatten"
  bottom: "conv8_2_concat_act_loc_perm"
  top: "conv8_2_concat_act_loc_flat"
  flatten_param {
    axis: 1
  }
}
layer {
  name: "conv8_2_concat_act_conf"
  type: "Convolution"
  bottom: "conv8_2_concat"
  top: "conv8_2_concat_act_conf"
  param {
    lr_mult: 1
    decay_mult: 1
  }
  param {
    lr_mult: 2
    decay_mult: 0
  }
  convolution_param {
    num_output: 44
    pad: 1
    kernel_size: 3
    stride: 1
    weight_filler {
      type: "xavier"
    }
    bias_filler {
      type: "constant"
      value: 0
    }
  }
}
layer {
  name: "conv8_2_concat_act_conf_perm"
  type: "Permute"
  bottom: "conv8_2_concat_act_conf"
  top: "conv8_2_concat_act_conf_perm"
  permute_param {
    order: 0
    order: 2
    order: 3
    order: 1
  }
}
layer {
  name: "conv8_2_concat_act_conf_flat"
  type: "Flatten"
  bottom: "conv8_2_concat_act_conf_perm"
  top: "conv8_2_concat_act_conf_flat"
  flatten_param {
    axis: 1
  }
}
layer {
  name: "conv8_2_concat_act_priorbox"
  type: "PriorBox"
  bottom: "conv8_2_concat"
  bottom: "data_stream0flow"
  top: "conv8_2_concat_act_priorbox"
  prior_box_param {
    min_size: 213.0
    max_size: 264.0
    aspect_ratio: 2
    flip: true
    clip: false
    variance: 0.1
    variance: 0.1
    variance: 0.2
    variance: 0.2
    step: 100
    offset: 0.5
  }
}
layer {
  name: "conv9_2_concat"
  type: "Concat"
  bottom: "conv9_2_stream0flow"
  bottom: "conv9_2_stream1flow"
  bottom: "conv9_2_stream2flow"
  bottom: "conv9_2_stream3flow"
  bottom: "conv9_2_stream4flow"
  bottom: "conv9_2_stream5flow"
  top: "conv9_2_concat"
  concat_param {
    axis: 1
  }
}
layer {
  name: "conv9_2_concat_act_loc"
  type: "Convolution"
  bottom: "conv9_2_concat"
  top: "conv9_2_concat_act_loc"
  param {
    lr_mult: 1
    decay_mult: 1
  }
  param {
    lr_mult: 2
    decay_mult: 0
  }
  convolution_param {
    num_output: 96
    pad: 1
    kernel_size: 3
    stride: 1
    weight_filler {
      type: "xavier"
    }
    bias_filler {
      type: "constant"
      value: 0
    }
  }
}
layer {
  name: "conv9_2_concat_act_loc_perm"
  type: "Permute"
  bottom: "conv9_2_concat_act_loc"
  top: "conv9_2_concat_act_loc_perm"
  permute_param {
    order: 0
    order: 2
    order: 3
    order: 1
  }
}
layer {
  name: "conv9_2_concat_act_loc_flat"
  type: "Flatten"
  bottom: "conv9_2_concat_act_loc_perm"
  top: "conv9_2_concat_act_loc_flat"
  flatten_param {
    axis: 1
  }
}
layer {
  name: "conv9_2_concat_act_conf"
  type: "Convolution"
  bottom: "conv9_2_concat"
  top: "conv9_2_concat_act_conf"
  param {
    lr_mult: 1
    decay_mult: 1
  }
  param {
    lr_mult: 2
    decay_mult: 0
  }
  convolution_param {
    num_output: 44
    pad: 1
    kernel_size: 3
    stride: 1
    weight_filler {
      type: "xavier"
    }
    bias_filler {
      type: "constant"
      value: 0
    }
  }
}
layer {
  name: "conv9_2_concat_act_conf_perm"
  type: "Permute"
  bottom: "conv9_2_concat_act_conf"
  top: "conv9_2_concat_act_conf_perm"
  permute_param {
    order: 0
    order: 2
    order: 3
    order: 1
  }
}
layer {
  name: "conv9_2_concat_act_conf_flat"
  type: "Flatten"
  bottom: "conv9_2_concat_act_conf_perm"
  top: "conv9_2_concat_act_conf_flat"
  flatten_param {
    axis: 1
  }
}
layer {
  name: "conv9_2_concat_act_priorbox"
  type: "PriorBox"
  bottom: "conv9_2_concat"
  bottom: "data_stream0flow"
  top: "conv9_2_concat_act_priorbox"
  prior_box_param {
    min_size: 264.0
    max_size: 315.0
    aspect_ratio: 2
    flip: true
    clip: false
    variance: 0.1
    variance: 0.1
    variance: 0.2
    variance: 0.2
    step: 300
    offset: 0.5
  }
}
layer {
  name: "act_loc"
  type: "Concat"
  bottom: "conv4_3_norm_concat_act_loc_flat"
  bottom: "fc7_concat_act_loc_flat"
  bottom: "conv6_2_concat_act_loc_flat"
  bottom: "conv7_2_concat_act_loc_flat"
  bottom: "conv8_2_concat_act_loc_flat"
  bottom: "conv9_2_concat_act_loc_flat"
  top: "act_loc"
  concat_param {
    axis: 1
  }
}
layer {
  name: "act_conf"
  type: "Concat"
  bottom: "conv4_3_norm_concat_act_conf_flat"
  bottom: "fc7_concat_act_conf_flat"
  bottom: "conv6_2_concat_act_conf_flat"
  bottom: "conv7_2_concat_act_conf_flat"
  bottom: "conv8_2_concat_act_conf_flat"
  bottom: "conv9_2_concat_act_conf_flat"
  top: "act_conf"
  concat_param {
    axis: 1
  }
}
layer {
  name: "act_priorbox"
  type: "Concat"
  bottom: "conv4_3_norm_concat_act_priorbox"
  bottom: "fc7_concat_act_priorbox"
  bottom: "conv6_2_concat_act_priorbox"
  bottom: "conv7_2_concat_act_priorbox"
  bottom: "conv8_2_concat_act_priorbox"
  bottom: "conv9_2_concat_act_priorbox"
  top: "act_priorbox"
  concat_param {
    axis: 2
  }
}
layer {
  name: "act_conf_reshape"
  type: "Reshape"
  bottom: "act_conf"
  top: "act_conf_reshape"
  reshape_param {
    shape {
      dim: 0
      dim: -1
      dim: 11
    }
  }
}
layer {
  name: "act_conf_softmax"
  type: "Softmax"
  bottom: "act_conf_reshape"
  top: "act_conf_softmax"
  softmax_param {
    axis: 2
  }
}
layer {
  name: "act_conf_flatten"
  type: "Flatten"
  bottom: "act_conf_softmax"
  top: "act_conf_flatten"
  flatten_param {
    axis: 1
  }
}
layer {
  name: "detection_out_full"
  type: "ACTDetectionOutput"
  bottom: "act_loc"
  bottom: "act_conf_flatten"
  bottom: "act_priorbox"
  top: "detection_out_full"
  include {
    phase: TEST
  }
  detection_output_param {
    num_classes: 11
    share_location: true
    background_label_id: 0
    nms_param {
      nms_threshold: 0.45
      top_k: 400
    }
    code_type: CENTER_SIZE
    keep_top_k: 200
    confidence_threshold: 0.01
  }
  act_detection_output_param {
    sequence_length: 6
    save_full: True
  }
}

