name: "ACTdetector_JHMDB3_RGB_train"
layer {
  name: "data"
  type: "Python"
  top: "data_stream0"
  top: "data_stream1"
  top: "data_stream2"
  top: "data_stream3"
  top: "data_stream4"
  top: "data_stream5"
  top: "label"
  include {
    phase: TRAIN
  }
  python_param {
    module: "ACT_datalayer"
    layer: "MultiframesLayer"
    param_str: "{\"dataset_name\": \"JHMDB3\", \"K\": 6, \"batch_size\": 5, \"resize_height\": 300, \"resize_width\": 300, \"restart_iter\": 0, \"flow\": False, \"ninput\": 1}"
  }
}
layer {
  name: "conv1_1_stream0"
  type: "Convolution"
  bottom: "data_stream0"
  top: "conv1_1_stream0"
  param {
    name: "conv1_1_w"
    lr_mult: 0.166666666667
    decay_mult: 1
  }
  param {
    name: "conv1_1_b"
    lr_mult: 0.333333333333
    decay_mult: 0
  }
  convolution_param {
    num_output: 64
    pad: 1
    kernel_size: 3
    weight_filler {
      type: "xavier"
    }
    bias_filler {
      type: "constant"
      value: 0
    }
  }
}
layer {
  name: "conv1_1_stream1"
  type: "Convolution"
  bottom: "data_stream1"
  top: "conv1_1_stream1"
  param {
    name: "conv1_1_w"
    lr_mult: 0.166666666667
    decay_mult: 1
  }
  param {
    name: "conv1_1_b"
    lr_mult: 0.333333333333
    decay_mult: 0
  }
  convolution_param {
    num_output: 64
    pad: 1
    kernel_size: 3
    weight_filler {
      type: "xavier"
    }
    bias_filler {
      type: "constant"
      value: 0
    }
  }
}
layer {
  name: "conv1_1_stream2"
  type: "Convolution"
  bottom: "data_stream2"
  top: "conv1_1_stream2"
  param {
    name: "conv1_1_w"
    lr_mult: 0.166666666667
    decay_mult: 1
  }
  param {
    name: "conv1_1_b"
    lr_mult: 0.333333333333
    decay_mult: 0
  }
  convolution_param {
    num_output: 64
    pad: 1
    kernel_size: 3
    weight_filler {
      type: "xavier"
    }
    bias_filler {
      type: "constant"
      value: 0
    }
  }
}
layer {
  name: "conv1_1_stream3"
  type: "Convolution"
  bottom: "data_stream3"
  top: "conv1_1_stream3"
  param {
    name: "conv1_1_w"
    lr_mult: 0.166666666667
    decay_mult: 1
  }
  param {
    name: "conv1_1_b"
    lr_mult: 0.333333333333
    decay_mult: 0
  }
  convolution_param {
    num_output: 64
    pad: 1
    kernel_size: 3
    weight_filler {
      type: "xavier"
    }
    bias_filler {
      type: "constant"
      value: 0
    }
  }
}
layer {
  name: "conv1_1_stream4"
  type: "Convolution"
  bottom: "data_stream4"
  top: "conv1_1_stream4"
  param {
    name: "conv1_1_w"
    lr_mult: 0.166666666667
    decay_mult: 1
  }
  param {
    name: "conv1_1_b"
    lr_mult: 0.333333333333
    decay_mult: 0
  }
  convolution_param {
    num_output: 64
    pad: 1
    kernel_size: 3
    weight_filler {
      type: "xavier"
    }
    bias_filler {
      type: "constant"
      value: 0
    }
  }
}
layer {
  name: "conv1_1_stream5"
  type: "Convolution"
  bottom: "data_stream5"
  top: "conv1_1_stream5"
  param {
    name: "conv1_1_w"
    lr_mult: 0.166666666667
    decay_mult: 1
  }
  param {
    name: "conv1_1_b"
    lr_mult: 0.333333333333
    decay_mult: 0
  }
  convolution_param {
    num_output: 64
    pad: 1
    kernel_size: 3
    weight_filler {
      type: "xavier"
    }
    bias_filler {
      type: "constant"
      value: 0
    }
  }
}
layer {
  name: "relu1_1_stream0"
  type: "ReLU"
  bottom: "conv1_1_stream0"
  top: "conv1_1_stream0"
}
layer {
  name: "conv1_2_stream0"
  type: "Convolution"
  bottom: "conv1_1_stream0"
  top: "conv1_2_stream0"
  param {
    name: "conv1_2_w"
    lr_mult: 0.166666666667
    decay_mult: 1
  }
  param {
    name: "conv1_2_b"
    lr_mult: 0.333333333333
    decay_mult: 0
  }
  convolution_param {
    num_output: 64
    pad: 1
    kernel_size: 3
    weight_filler {
      type: "xavier"
    }
    bias_filler {
      type: "constant"
      value: 0
    }
  }
}
layer {
  name: "relu1_2_stream0"
  type: "ReLU"
  bottom: "conv1_2_stream0"
  top: "conv1_2_stream0"
}
layer {
  name: "relu1_1_stream1"
  type: "ReLU"
  bottom: "conv1_1_stream1"
  top: "conv1_1_stream1"
}
layer {
  name: "conv1_2_stream1"
  type: "Convolution"
  bottom: "conv1_1_stream1"
  top: "conv1_2_stream1"
  param {
    name: "conv1_2_w"
    lr_mult: 0.166666666667
    decay_mult: 1
  }
  param {
    name: "conv1_2_b"
    lr_mult: 0.333333333333
    decay_mult: 0
  }
  convolution_param {
    num_output: 64
    pad: 1
    kernel_size: 3
    weight_filler {
      type: "xavier"
    }
    bias_filler {
      type: "constant"
      value: 0
    }
  }
}
layer {
  name: "relu1_2_stream1"
  type: "ReLU"
  bottom: "conv1_2_stream1"
  top: "conv1_2_stream1"
}
layer {
  name: "relu1_1_stream2"
  type: "ReLU"
  bottom: "conv1_1_stream2"
  top: "conv1_1_stream2"
}
layer {
  name: "conv1_2_stream2"
  type: "Convolution"
  bottom: "conv1_1_stream2"
  top: "conv1_2_stream2"
  param {
    name: "conv1_2_w"
    lr_mult: 0.166666666667
    decay_mult: 1
  }
  param {
    name: "conv1_2_b"
    lr_mult: 0.333333333333
    decay_mult: 0
  }
  convolution_param {
    num_output: 64
    pad: 1
    kernel_size: 3
    weight_filler {
      type: "xavier"
    }
    bias_filler {
      type: "constant"
      value: 0
    }
  }
}
layer {
  name: "relu1_2_stream2"
  type: "ReLU"
  bottom: "conv1_2_stream2"
  top: "conv1_2_stream2"
}
layer {
  name: "relu1_1_stream3"
  type: "ReLU"
  bottom: "conv1_1_stream3"
  top: "conv1_1_stream3"
}
layer {
  name: "conv1_2_stream3"
  type: "Convolution"
  bottom: "conv1_1_stream3"
  top: "conv1_2_stream3"
  param {
    name: "conv1_2_w"
    lr_mult: 0.166666666667
    decay_mult: 1
  }
  param {
    name: "conv1_2_b"
    lr_mult: 0.333333333333
    decay_mult: 0
  }
  convolution_param {
    num_output: 64
    pad: 1
    kernel_size: 3
    weight_filler {
      type: "xavier"
    }
    bias_filler {
      type: "constant"
      value: 0
    }
  }
}
layer {
  name: "relu1_2_stream3"
  type: "ReLU"
  bottom: "conv1_2_stream3"
  top: "conv1_2_stream3"
}
layer {
  name: "relu1_1_stream4"
  type: "ReLU"
  bottom: "conv1_1_stream4"
  top: "conv1_1_stream4"
}
layer {
  name: "conv1_2_stream4"
  type: "Convolution"
  bottom: "conv1_1_stream4"
  top: "conv1_2_stream4"
  param {
    name: "conv1_2_w"
    lr_mult: 0.166666666667
    decay_mult: 1
  }
  param {
    name: "conv1_2_b"
    lr_mult: 0.333333333333
    decay_mult: 0
  }
  convolution_param {
    num_output: 64
    pad: 1
    kernel_size: 3
    weight_filler {
      type: "xavier"
    }
    bias_filler {
      type: "constant"
      value: 0
    }
  }
}
layer {
  name: "relu1_2_stream4"
  type: "ReLU"
  bottom: "conv1_2_stream4"
  top: "conv1_2_stream4"
}
layer {
  name: "relu1_1_stream5"
  type: "ReLU"
  bottom: "conv1_1_stream5"
  top: "conv1_1_stream5"
}
layer {
  name: "conv1_2_stream5"
  type: "Convolution"
  bottom: "conv1_1_stream5"
  top: "conv1_2_stream5"
  param {
    name: "conv1_2_w"
    lr_mult: 0.166666666667
    decay_mult: 1
  }
  param {
    name: "conv1_2_b"
    lr_mult: 0.333333333333
    decay_mult: 0
  }
  convolution_param {
    num_output: 64
    pad: 1
    kernel_size: 3
    weight_filler {
      type: "xavier"
    }
    bias_filler {
      type: "constant"
      value: 0
    }
  }
}
layer {
  name: "relu1_2_stream5"
  type: "ReLU"
  bottom: "conv1_2_stream5"
  top: "conv1_2_stream5"
}
layer {
  name: "pool1_stream0"
  type: "Pooling"
  bottom: "conv1_2_stream0"
  top: "pool1_stream0"
  pooling_param {
    pool: MAX
    kernel_size: 2
    stride: 2
  }
}
layer {
  name: "pool1_stream1"
  type: "Pooling"
  bottom: "conv1_2_stream1"
  top: "pool1_stream1"
  pooling_param {
    pool: MAX
    kernel_size: 2
    stride: 2
  }
}
layer {
  name: "pool1_stream2"
  type: "Pooling"
  bottom: "conv1_2_stream2"
  top: "pool1_stream2"
  pooling_param {
    pool: MAX
    kernel_size: 2
    stride: 2
  }
}
layer {
  name: "pool1_stream3"
  type: "Pooling"
  bottom: "conv1_2_stream3"
  top: "pool1_stream3"
  pooling_param {
    pool: MAX
    kernel_size: 2
    stride: 2
  }
}
layer {
  name: "pool1_stream4"
  type: "Pooling"
  bottom: "conv1_2_stream4"
  top: "pool1_stream4"
  pooling_param {
    pool: MAX
    kernel_size: 2
    stride: 2
  }
}
layer {
  name: "pool1_stream5"
  type: "Pooling"
  bottom: "conv1_2_stream5"
  top: "pool1_stream5"
  pooling_param {
    pool: MAX
    kernel_size: 2
    stride: 2
  }
}
layer {
  name: "conv2_1_stream0"
  type: "Convolution"
  bottom: "pool1_stream0"
  top: "conv2_1_stream0"
  param {
    name: "conv2_1_w"
    lr_mult: 0.166666666667
    decay_mult: 1
  }
  param {
    name: "conv2_1_b"
    lr_mult: 0.333333333333
    decay_mult: 0
  }
  convolution_param {
    num_output: 128
    pad: 1
    kernel_size: 3
    weight_filler {
      type: "xavier"
    }
    bias_filler {
      type: "constant"
      value: 0
    }
  }
}
layer {
  name: "relu2_1_stream0"
  type: "ReLU"
  bottom: "conv2_1_stream0"
  top: "conv2_1_stream0"
}
layer {
  name: "conv2_1_stream1"
  type: "Convolution"
  bottom: "pool1_stream1"
  top: "conv2_1_stream1"
  param {
    name: "conv2_1_w"
    lr_mult: 0.166666666667
    decay_mult: 1
  }
  param {
    name: "conv2_1_b"
    lr_mult: 0.333333333333
    decay_mult: 0
  }
  convolution_param {
    num_output: 128
    pad: 1
    kernel_size: 3
    weight_filler {
      type: "xavier"
    }
    bias_filler {
      type: "constant"
      value: 0
    }
  }
}
layer {
  name: "relu2_1_stream1"
  type: "ReLU"
  bottom: "conv2_1_stream1"
  top: "conv2_1_stream1"
}
layer {
  name: "conv2_1_stream2"
  type: "Convolution"
  bottom: "pool1_stream2"
  top: "conv2_1_stream2"
  param {
    name: "conv2_1_w"
    lr_mult: 0.166666666667
    decay_mult: 1
  }
  param {
    name: "conv2_1_b"
    lr_mult: 0.333333333333
    decay_mult: 0
  }
  convolution_param {
    num_output: 128
    pad: 1
    kernel_size: 3
    weight_filler {
      type: "xavier"
    }
    bias_filler {
      type: "constant"
      value: 0
    }
  }
}
layer {
  name: "relu2_1_stream2"
  type: "ReLU"
  bottom: "conv2_1_stream2"
  top: "conv2_1_stream2"
}
layer {
  name: "conv2_1_stream3"
  type: "Convolution"
  bottom: "pool1_stream3"
  top: "conv2_1_stream3"
  param {
    name: "conv2_1_w"
    lr_mult: 0.166666666667
    decay_mult: 1
  }
  param {
    name: "conv2_1_b"
    lr_mult: 0.333333333333
    decay_mult: 0
  }
  convolution_param {
    num_output: 128
    pad: 1
    kernel_size: 3
    weight_filler {
      type: "xavier"
    }
    bias_filler {
      type: "constant"
      value: 0
    }
  }
}
layer {
  name: "relu2_1_stream3"
  type: "ReLU"
  bottom: "conv2_1_stream3"
  top: "conv2_1_stream3"
}
layer {
  name: "conv2_1_stream4"
  type: "Convolution"
  bottom: "pool1_stream4"
  top: "conv2_1_stream4"
  param {
    name: "conv2_1_w"
    lr_mult: 0.166666666667
    decay_mult: 1
  }
  param {
    name: "conv2_1_b"
    lr_mult: 0.333333333333
    decay_mult: 0
  }
  convolution_param {
    num_output: 128
    pad: 1
    kernel_size: 3
    weight_filler {
      type: "xavier"
    }
    bias_filler {
      type: "constant"
      value: 0
    }
  }
}
layer {
  name: "relu2_1_stream4"
  type: "ReLU"
  bottom: "conv2_1_stream4"
  top: "conv2_1_stream4"
}
layer {
  name: "conv2_1_stream5"
  type: "Convolution"
  bottom: "pool1_stream5"
  top: "conv2_1_stream5"
  param {
    name: "conv2_1_w"
    lr_mult: 0.166666666667
    decay_mult: 1
  }
  param {
    name: "conv2_1_b"
    lr_mult: 0.333333333333
    decay_mult: 0
  }
  convolution_param {
    num_output: 128
    pad: 1
    kernel_size: 3
    weight_filler {
      type: "xavier"
    }
    bias_filler {
      type: "constant"
      value: 0
    }
  }
}
layer {
  name: "relu2_1_stream5"
  type: "ReLU"
  bottom: "conv2_1_stream5"
  top: "conv2_1_stream5"
}
layer {
  name: "conv2_2_stream0"
  type: "Convolution"
  bottom: "conv2_1_stream0"
  top: "conv2_2_stream0"
  param {
    name: "conv2_2_w"
    lr_mult: 0.166666666667
    decay_mult: 1
  }
  param {
    name: "conv2_2_b"
    lr_mult: 0.333333333333
    decay_mult: 0
  }
  convolution_param {
    num_output: 128
    pad: 1
    kernel_size: 3
    weight_filler {
      type: "xavier"
    }
    bias_filler {
      type: "constant"
      value: 0
    }
  }
}
layer {
  name: "relu2_2_stream0"
  type: "ReLU"
  bottom: "conv2_2_stream0"
  top: "conv2_2_stream0"
}
layer {
  name: "conv2_2_stream1"
  type: "Convolution"
  bottom: "conv2_1_stream1"
  top: "conv2_2_stream1"
  param {
    name: "conv2_2_w"
    lr_mult: 0.166666666667
    decay_mult: 1
  }
  param {
    name: "conv2_2_b"
    lr_mult: 0.333333333333
    decay_mult: 0
  }
  convolution_param {
    num_output: 128
    pad: 1
    kernel_size: 3
    weight_filler {
      type: "xavier"
    }
    bias_filler {
      type: "constant"
      value: 0
    }
  }
}
layer {
  name: "relu2_2_stream1"
  type: "ReLU"
  bottom: "conv2_2_stream1"
  top: "conv2_2_stream1"
}
layer {
  name: "conv2_2_stream2"
  type: "Convolution"
  bottom: "conv2_1_stream2"
  top: "conv2_2_stream2"
  param {
    name: "conv2_2_w"
    lr_mult: 0.166666666667
    decay_mult: 1
  }
  param {
    name: "conv2_2_b"
    lr_mult: 0.333333333333
    decay_mult: 0
  }
  convolution_param {
    num_output: 128
    pad: 1
    kernel_size: 3
    weight_filler {
      type: "xavier"
    }
    bias_filler {
      type: "constant"
      value: 0
    }
  }
}
layer {
  name: "relu2_2_stream2"
  type: "ReLU"
  bottom: "conv2_2_stream2"
  top: "conv2_2_stream2"
}
layer {
  name: "conv2_2_stream3"
  type: "Convolution"
  bottom: "conv2_1_stream3"
  top: "conv2_2_stream3"
  param {
    name: "conv2_2_w"
    lr_mult: 0.166666666667
    decay_mult: 1
  }
  param {
    name: "conv2_2_b"
    lr_mult: 0.333333333333
    decay_mult: 0
  }
  convolution_param {
    num_output: 128
    pad: 1
    kernel_size: 3
    weight_filler {
      type: "xavier"
    }
    bias_filler {
      type: "constant"
      value: 0
    }
  }
}
layer {
  name: "relu2_2_stream3"
  type: "ReLU"
  bottom: "conv2_2_stream3"
  top: "conv2_2_stream3"
}
layer {
  name: "conv2_2_stream4"
  type: "Convolution"
  bottom: "conv2_1_stream4"
  top: "conv2_2_stream4"
  param {
    name: "conv2_2_w"
    lr_mult: 0.166666666667
    decay_mult: 1
  }
  param {
    name: "conv2_2_b"
    lr_mult: 0.333333333333
    decay_mult: 0
  }
  convolution_param {
    num_output: 128
    pad: 1
    kernel_size: 3
    weight_filler {
      type: "xavier"
    }
    bias_filler {
      type: "constant"
      value: 0
    }
  }
}
layer {
  name: "relu2_2_stream4"
  type: "ReLU"
  bottom: "conv2_2_stream4"
  top: "conv2_2_stream4"
}
layer {
  name: "conv2_2_stream5"
  type: "Convolution"
  bottom: "conv2_1_stream5"
  top: "conv2_2_stream5"
  param {
    name: "conv2_2_w"
    lr_mult: 0.166666666667
    decay_mult: 1
  }
  param {
    name: "conv2_2_b"
    lr_mult: 0.333333333333
    decay_mult: 0
  }
  convolution_param {
    num_output: 128
    pad: 1
    kernel_size: 3
    weight_filler {
      type: "xavier"
    }
    bias_filler {
      type: "constant"
      value: 0
    }
  }
}
layer {
  name: "relu2_2_stream5"
  type: "ReLU"
  bottom: "conv2_2_stream5"
  top: "conv2_2_stream5"
}
layer {
  name: "pool2_stream0"
  type: "Pooling"
  bottom: "conv2_2_stream0"
  top: "pool2_stream0"
  pooling_param {
    pool: MAX
    kernel_size: 2
    stride: 2
  }
}
layer {
  name: "pool2_stream1"
  type: "Pooling"
  bottom: "conv2_2_stream1"
  top: "pool2_stream1"
  pooling_param {
    pool: MAX
    kernel_size: 2
    stride: 2
  }
}
layer {
  name: "pool2_stream2"
  type: "Pooling"
  bottom: "conv2_2_stream2"
  top: "pool2_stream2"
  pooling_param {
    pool: MAX
    kernel_size: 2
    stride: 2
  }
}
layer {
  name: "pool2_stream3"
  type: "Pooling"
  bottom: "conv2_2_stream3"
  top: "pool2_stream3"
  pooling_param {
    pool: MAX
    kernel_size: 2
    stride: 2
  }
}
layer {
  name: "pool2_stream4"
  type: "Pooling"
  bottom: "conv2_2_stream4"
  top: "pool2_stream4"
  pooling_param {
    pool: MAX
    kernel_size: 2
    stride: 2
  }
}
layer {
  name: "pool2_stream5"
  type: "Pooling"
  bottom: "conv2_2_stream5"
  top: "pool2_stream5"
  pooling_param {
    pool: MAX
    kernel_size: 2
    stride: 2
  }
}
layer {
  name: "conv3_1_stream0"
  type: "Convolution"
  bottom: "pool2_stream0"
  top: "conv3_1_stream0"
  param {
    name: "conv3_1_w"
    lr_mult: 0.166666666667
    decay_mult: 1
  }
  param {
    name: "conv3_1_b"
    lr_mult: 0.333333333333
    decay_mult: 0
  }
  convolution_param {
    num_output: 256
    pad: 1
    kernel_size: 3
    weight_filler {
      type: "xavier"
    }
    bias_filler {
      type: "constant"
      value: 0
    }
  }
}
layer {
  name: "relu3_1_stream0"
  type: "ReLU"
  bottom: "conv3_1_stream0"
  top: "conv3_1_stream0"
}
layer {
  name: "conv3_1_stream1"
  type: "Convolution"
  bottom: "pool2_stream1"
  top: "conv3_1_stream1"
  param {
    name: "conv3_1_w"
    lr_mult: 0.166666666667
    decay_mult: 1
  }
  param {
    name: "conv3_1_b"
    lr_mult: 0.333333333333
    decay_mult: 0
  }
  convolution_param {
    num_output: 256
    pad: 1
    kernel_size: 3
    weight_filler {
      type: "xavier"
    }
    bias_filler {
      type: "constant"
      value: 0
    }
  }
}
layer {
  name: "relu3_1_stream1"
  type: "ReLU"
  bottom: "conv3_1_stream1"
  top: "conv3_1_stream1"
}
layer {
  name: "conv3_1_stream2"
  type: "Convolution"
  bottom: "pool2_stream2"
  top: "conv3_1_stream2"
  param {
    name: "conv3_1_w"
    lr_mult: 0.166666666667
    decay_mult: 1
  }
  param {
    name: "conv3_1_b"
    lr_mult: 0.333333333333
    decay_mult: 0
  }
  convolution_param {
    num_output: 256
    pad: 1
    kernel_size: 3
    weight_filler {
      type: "xavier"
    }
    bias_filler {
      type: "constant"
      value: 0
    }
  }
}
layer {
  name: "relu3_1_stream2"
  type: "ReLU"
  bottom: "conv3_1_stream2"
  top: "conv3_1_stream2"
}
layer {
  name: "conv3_1_stream3"
  type: "Convolution"
  bottom: "pool2_stream3"
  top: "conv3_1_stream3"
  param {
    name: "conv3_1_w"
    lr_mult: 0.166666666667
    decay_mult: 1
  }
  param {
    name: "conv3_1_b"
    lr_mult: 0.333333333333
    decay_mult: 0
  }
  convolution_param {
    num_output: 256
    pad: 1
    kernel_size: 3
    weight_filler {
      type: "xavier"
    }
    bias_filler {
      type: "constant"
      value: 0
    }
  }
}
layer {
  name: "relu3_1_stream3"
  type: "ReLU"
  bottom: "conv3_1_stream3"
  top: "conv3_1_stream3"
}
layer {
  name: "conv3_1_stream4"
  type: "Convolution"
  bottom: "pool2_stream4"
  top: "conv3_1_stream4"
  param {
    name: "conv3_1_w"
    lr_mult: 0.166666666667
    decay_mult: 1
  }
  param {
    name: "conv3_1_b"
    lr_mult: 0.333333333333
    decay_mult: 0
  }
  convolution_param {
    num_output: 256
    pad: 1
    kernel_size: 3
    weight_filler {
      type: "xavier"
    }
    bias_filler {
      type: "constant"
      value: 0
    }
  }
}
layer {
  name: "relu3_1_stream4"
  type: "ReLU"
  bottom: "conv3_1_stream4"
  top: "conv3_1_stream4"
}
layer {
  name: "conv3_1_stream5"
  type: "Convolution"
  bottom: "pool2_stream5"
  top: "conv3_1_stream5"
  param {
    name: "conv3_1_w"
    lr_mult: 0.166666666667
    decay_mult: 1
  }
  param {
    name: "conv3_1_b"
    lr_mult: 0.333333333333
    decay_mult: 0
  }
  convolution_param {
    num_output: 256
    pad: 1
    kernel_size: 3
    weight_filler {
      type: "xavier"
    }
    bias_filler {
      type: "constant"
      value: 0
    }
  }
}
layer {
  name: "relu3_1_stream5"
  type: "ReLU"
  bottom: "conv3_1_stream5"
  top: "conv3_1_stream5"
}
layer {
  name: "conv3_2_stream0"
  type: "Convolution"
  bottom: "conv3_1_stream0"
  top: "conv3_2_stream0"
  param {
    name: "conv3_2_w"
    lr_mult: 0.166666666667
    decay_mult: 1
  }
  param {
    name: "conv3_2_b"
    lr_mult: 0.333333333333
    decay_mult: 0
  }
  convolution_param {
    num_output: 256
    pad: 1
    kernel_size: 3
    weight_filler {
      type: "xavier"
    }
    bias_filler {
      type: "constant"
      value: 0
    }
  }
}
layer {
  name: "relu3_2_stream0"
  type: "ReLU"
  bottom: "conv3_2_stream0"
  top: "conv3_2_stream0"
}
layer {
  name: "conv3_2_stream1"
  type: "Convolution"
  bottom: "conv3_1_stream1"
  top: "conv3_2_stream1"
  param {
    name: "conv3_2_w"
    lr_mult: 0.166666666667
    decay_mult: 1
  }
  param {
    name: "conv3_2_b"
    lr_mult: 0.333333333333
    decay_mult: 0
  }
  convolution_param {
    num_output: 256
    pad: 1
    kernel_size: 3
    weight_filler {
      type: "xavier"
    }
    bias_filler {
      type: "constant"
      value: 0
    }
  }
}
layer {
  name: "relu3_2_stream1"
  type: "ReLU"
  bottom: "conv3_2_stream1"
  top: "conv3_2_stream1"
}
layer {
  name: "conv3_2_stream2"
  type: "Convolution"
  bottom: "conv3_1_stream2"
  top: "conv3_2_stream2"
  param {
    name: "conv3_2_w"
    lr_mult: 0.166666666667
    decay_mult: 1
  }
  param {
    name: "conv3_2_b"
    lr_mult: 0.333333333333
    decay_mult: 0
  }
  convolution_param {
    num_output: 256
    pad: 1
    kernel_size: 3
    weight_filler {
      type: "xavier"
    }
    bias_filler {
      type: "constant"
      value: 0
    }
  }
}
layer {
  name: "relu3_2_stream2"
  type: "ReLU"
  bottom: "conv3_2_stream2"
  top: "conv3_2_stream2"
}
layer {
  name: "conv3_2_stream3"
  type: "Convolution"
  bottom: "conv3_1_stream3"
  top: "conv3_2_stream3"
  param {
    name: "conv3_2_w"
    lr_mult: 0.166666666667
    decay_mult: 1
  }
  param {
    name: "conv3_2_b"
    lr_mult: 0.333333333333
    decay_mult: 0
  }
  convolution_param {
    num_output: 256
    pad: 1
    kernel_size: 3
    weight_filler {
      type: "xavier"
    }
    bias_filler {
      type: "constant"
      value: 0
    }
  }
}
layer {
  name: "relu3_2_stream3"
  type: "ReLU"
  bottom: "conv3_2_stream3"
  top: "conv3_2_stream3"
}
layer {
  name: "conv3_2_stream4"
  type: "Convolution"
  bottom: "conv3_1_stream4"
  top: "conv3_2_stream4"
  param {
    name: "conv3_2_w"
    lr_mult: 0.166666666667
    decay_mult: 1
  }
  param {
    name: "conv3_2_b"
    lr_mult: 0.333333333333
    decay_mult: 0
  }
  convolution_param {
    num_output: 256
    pad: 1
    kernel_size: 3
    weight_filler {
      type: "xavier"
    }
    bias_filler {
      type: "constant"
      value: 0
    }
  }
}
layer {
  name: "relu3_2_stream4"
  type: "ReLU"
  bottom: "conv3_2_stream4"
  top: "conv3_2_stream4"
}
layer {
  name: "conv3_2_stream5"
  type: "Convolution"
  bottom: "conv3_1_stream5"
  top: "conv3_2_stream5"
  param {
    name: "conv3_2_w"
    lr_mult: 0.166666666667
    decay_mult: 1
  }
  param {
    name: "conv3_2_b"
    lr_mult: 0.333333333333
    decay_mult: 0
  }
  convolution_param {
    num_output: 256
    pad: 1
    kernel_size: 3
    weight_filler {
      type: "xavier"
    }
    bias_filler {
      type: "constant"
      value: 0
    }
  }
}
layer {
  name: "relu3_2_stream5"
  type: "ReLU"
  bottom: "conv3_2_stream5"
  top: "conv3_2_stream5"
}
layer {
  name: "conv3_3_stream0"
  type: "Convolution"
  bottom: "conv3_2_stream0"
  top: "conv3_3_stream0"
  param {
    name: "conv3_3_w"
    lr_mult: 0.166666666667
    decay_mult: 1
  }
  param {
    name: "conv3_3_b"
    lr_mult: 0.333333333333
    decay_mult: 0
  }
  convolution_param {
    num_output: 256
    pad: 1
    kernel_size: 3
    weight_filler {
      type: "xavier"
    }
    bias_filler {
      type: "constant"
      value: 0
    }
  }
}
layer {
  name: "relu3_3_stream0"
  type: "ReLU"
  bottom: "conv3_3_stream0"
  top: "conv3_3_stream0"
}
layer {
  name: "conv3_3_stream1"
  type: "Convolution"
  bottom: "conv3_2_stream1"
  top: "conv3_3_stream1"
  param {
    name: "conv3_3_w"
    lr_mult: 0.166666666667
    decay_mult: 1
  }
  param {
    name: "conv3_3_b"
    lr_mult: 0.333333333333
    decay_mult: 0
  }
  convolution_param {
    num_output: 256
    pad: 1
    kernel_size: 3
    weight_filler {
      type: "xavier"
    }
    bias_filler {
      type: "constant"
      value: 0
    }
  }
}
layer {
  name: "relu3_3_stream1"
  type: "ReLU"
  bottom: "conv3_3_stream1"
  top: "conv3_3_stream1"
}
layer {
  name: "conv3_3_stream2"
  type: "Convolution"
  bottom: "conv3_2_stream2"
  top: "conv3_3_stream2"
  param {
    name: "conv3_3_w"
    lr_mult: 0.166666666667
    decay_mult: 1
  }
  param {
    name: "conv3_3_b"
    lr_mult: 0.333333333333
    decay_mult: 0
  }
  convolution_param {
    num_output: 256
    pad: 1
    kernel_size: 3
    weight_filler {
      type: "xavier"
    }
    bias_filler {
      type: "constant"
      value: 0
    }
  }
}
layer {
  name: "relu3_3_stream2"
  type: "ReLU"
  bottom: "conv3_3_stream2"
  top: "conv3_3_stream2"
}
layer {
  name: "conv3_3_stream3"
  type: "Convolution"
  bottom: "conv3_2_stream3"
  top: "conv3_3_stream3"
  param {
    name: "conv3_3_w"
    lr_mult: 0.166666666667
    decay_mult: 1
  }
  param {
    name: "conv3_3_b"
    lr_mult: 0.333333333333
    decay_mult: 0
  }
  convolution_param {
    num_output: 256
    pad: 1
    kernel_size: 3
    weight_filler {
      type: "xavier"
    }
    bias_filler {
      type: "constant"
      value: 0
    }
  }
}
layer {
  name: "relu3_3_stream3"
  type: "ReLU"
  bottom: "conv3_3_stream3"
  top: "conv3_3_stream3"
}
layer {
  name: "conv3_3_stream4"
  type: "Convolution"
  bottom: "conv3_2_stream4"
  top: "conv3_3_stream4"
  param {
    name: "conv3_3_w"
    lr_mult: 0.166666666667
    decay_mult: 1
  }
  param {
    name: "conv3_3_b"
    lr_mult: 0.333333333333
    decay_mult: 0
  }
  convolution_param {
    num_output: 256
    pad: 1
    kernel_size: 3
    weight_filler {
      type: "xavier"
    }
    bias_filler {
      type: "constant"
      value: 0
    }
  }
}
layer {
  name: "relu3_3_stream4"
  type: "ReLU"
  bottom: "conv3_3_stream4"
  top: "conv3_3_stream4"
}
layer {
  name: "conv3_3_stream5"
  type: "Convolution"
  bottom: "conv3_2_stream5"
  top: "conv3_3_stream5"
  param {
    name: "conv3_3_w"
    lr_mult: 0.166666666667
    decay_mult: 1
  }
  param {
    name: "conv3_3_b"
    lr_mult: 0.333333333333
    decay_mult: 0
  }
  convolution_param {
    num_output: 256
    pad: 1
    kernel_size: 3
    weight_filler {
      type: "xavier"
    }
    bias_filler {
      type: "constant"
      value: 0
    }
  }
}
layer {
  name: "relu3_3_stream5"
  type: "ReLU"
  bottom: "conv3_3_stream5"
  top: "conv3_3_stream5"
}
layer {
  name: "pool3_stream0"
  type: "Pooling"
  bottom: "conv3_3_stream0"
  top: "pool3_stream0"
  pooling_param {
    pool: MAX
    kernel_size: 2
    stride: 2
  }
}
layer {
  name: "pool3_stream1"
  type: "Pooling"
  bottom: "conv3_3_stream1"
  top: "pool3_stream1"
  pooling_param {
    pool: MAX
    kernel_size: 2
    stride: 2
  }
}
layer {
  name: "pool3_stream2"
  type: "Pooling"
  bottom: "conv3_3_stream2"
  top: "pool3_stream2"
  pooling_param {
    pool: MAX
    kernel_size: 2
    stride: 2
  }
}
layer {
  name: "pool3_stream3"
  type: "Pooling"
  bottom: "conv3_3_stream3"
  top: "pool3_stream3"
  pooling_param {
    pool: MAX
    kernel_size: 2
    stride: 2
  }
}
layer {
  name: "pool3_stream4"
  type: "Pooling"
  bottom: "conv3_3_stream4"
  top: "pool3_stream4"
  pooling_param {
    pool: MAX
    kernel_size: 2
    stride: 2
  }
}
layer {
  name: "pool3_stream5"
  type: "Pooling"
  bottom: "conv3_3_stream5"
  top: "pool3_stream5"
  pooling_param {
    pool: MAX
    kernel_size: 2
    stride: 2
  }
}
layer {
  name: "conv4_1_stream0"
  type: "Convolution"
  bottom: "pool3_stream0"
  top: "conv4_1_stream0"
  param {
    name: "conv4_1_w"
    lr_mult: 0.166666666667
    decay_mult: 1
  }
  param {
    name: "conv4_1_b"
    lr_mult: 0.333333333333
    decay_mult: 0
  }
  convolution_param {
    num_output: 512
    pad: 1
    kernel_size: 3
    weight_filler {
      type: "xavier"
    }
    bias_filler {
      type: "constant"
      value: 0
    }
  }
}
layer {
  name: "relu4_1_stream0"
  type: "ReLU"
  bottom: "conv4_1_stream0"
  top: "conv4_1_stream0"
}
layer {
  name: "conv4_1_stream1"
  type: "Convolution"
  bottom: "pool3_stream1"
  top: "conv4_1_stream1"
  param {
    name: "conv4_1_w"
    lr_mult: 0.166666666667
    decay_mult: 1
  }
  param {
    name: "conv4_1_b"
    lr_mult: 0.333333333333
    decay_mult: 0
  }
  convolution_param {
    num_output: 512
    pad: 1
    kernel_size: 3
    weight_filler {
      type: "xavier"
    }
    bias_filler {
      type: "constant"
      value: 0
    }
  }
}
layer {
  name: "relu4_1_stream1"
  type: "ReLU"
  bottom: "conv4_1_stream1"
  top: "conv4_1_stream1"
}
layer {
  name: "conv4_1_stream2"
  type: "Convolution"
  bottom: "pool3_stream2"
  top: "conv4_1_stream2"
  param {
    name: "conv4_1_w"
    lr_mult: 0.166666666667
    decay_mult: 1
  }
  param {
    name: "conv4_1_b"
    lr_mult: 0.333333333333
    decay_mult: 0
  }
  convolution_param {
    num_output: 512
    pad: 1
    kernel_size: 3
    weight_filler {
      type: "xavier"
    }
    bias_filler {
      type: "constant"
      value: 0
    }
  }
}
layer {
  name: "relu4_1_stream2"
  type: "ReLU"
  bottom: "conv4_1_stream2"
  top: "conv4_1_stream2"
}
layer {
  name: "conv4_1_stream3"
  type: "Convolution"
  bottom: "pool3_stream3"
  top: "conv4_1_stream3"
  param {
    name: "conv4_1_w"
    lr_mult: 0.166666666667
    decay_mult: 1
  }
  param {
    name: "conv4_1_b"
    lr_mult: 0.333333333333
    decay_mult: 0
  }
  convolution_param {
    num_output: 512
    pad: 1
    kernel_size: 3
    weight_filler {
      type: "xavier"
    }
    bias_filler {
      type: "constant"
      value: 0
    }
  }
}
layer {
  name: "relu4_1_stream3"
  type: "ReLU"
  bottom: "conv4_1_stream3"
  top: "conv4_1_stream3"
}
layer {
  name: "conv4_1_stream4"
  type: "Convolution"
  bottom: "pool3_stream4"
  top: "conv4_1_stream4"
  param {
    name: "conv4_1_w"
    lr_mult: 0.166666666667
    decay_mult: 1
  }
  param {
    name: "conv4_1_b"
    lr_mult: 0.333333333333
    decay_mult: 0
  }
  convolution_param {
    num_output: 512
    pad: 1
    kernel_size: 3
    weight_filler {
      type: "xavier"
    }
    bias_filler {
      type: "constant"
      value: 0
    }
  }
}
layer {
  name: "relu4_1_stream4"
  type: "ReLU"
  bottom: "conv4_1_stream4"
  top: "conv4_1_stream4"
}
layer {
  name: "conv4_1_stream5"
  type: "Convolution"
  bottom: "pool3_stream5"
  top: "conv4_1_stream5"
  param {
    name: "conv4_1_w"
    lr_mult: 0.166666666667
    decay_mult: 1
  }
  param {
    name: "conv4_1_b"
    lr_mult: 0.333333333333
    decay_mult: 0
  }
  convolution_param {
    num_output: 512
    pad: 1
    kernel_size: 3
    weight_filler {
      type: "xavier"
    }
    bias_filler {
      type: "constant"
      value: 0
    }
  }
}
layer {
  name: "relu4_1_stream5"
  type: "ReLU"
  bottom: "conv4_1_stream5"
  top: "conv4_1_stream5"
}
layer {
  name: "conv4_2_stream0"
  type: "Convolution"
  bottom: "conv4_1_stream0"
  top: "conv4_2_stream0"
  param {
    name: "conv4_2_w"
    lr_mult: 0.166666666667
    decay_mult: 1
  }
  param {
    name: "conv4_2_b"
    lr_mult: 0.333333333333
    decay_mult: 0
  }
  convolution_param {
    num_output: 512
    pad: 1
    kernel_size: 3
    weight_filler {
      type: "xavier"
    }
    bias_filler {
      type: "constant"
      value: 0
    }
  }
}
layer {
  name: "relu4_2_stream0"
  type: "ReLU"
  bottom: "conv4_2_stream0"
  top: "conv4_2_stream0"
}
layer {
  name: "conv4_2_stream1"
  type: "Convolution"
  bottom: "conv4_1_stream1"
  top: "conv4_2_stream1"
  param {
    name: "conv4_2_w"
    lr_mult: 0.166666666667
    decay_mult: 1
  }
  param {
    name: "conv4_2_b"
    lr_mult: 0.333333333333
    decay_mult: 0
  }
  convolution_param {
    num_output: 512
    pad: 1
    kernel_size: 3
    weight_filler {
      type: "xavier"
    }
    bias_filler {
      type: "constant"
      value: 0
    }
  }
}
layer {
  name: "relu4_2_stream1"
  type: "ReLU"
  bottom: "conv4_2_stream1"
  top: "conv4_2_stream1"
}
layer {
  name: "conv4_2_stream2"
  type: "Convolution"
  bottom: "conv4_1_stream2"
  top: "conv4_2_stream2"
  param {
    name: "conv4_2_w"
    lr_mult: 0.166666666667
    decay_mult: 1
  }
  param {
    name: "conv4_2_b"
    lr_mult: 0.333333333333
    decay_mult: 0
  }
  convolution_param {
    num_output: 512
    pad: 1
    kernel_size: 3
    weight_filler {
      type: "xavier"
    }
    bias_filler {
      type: "constant"
      value: 0
    }
  }
}
layer {
  name: "relu4_2_stream2"
  type: "ReLU"
  bottom: "conv4_2_stream2"
  top: "conv4_2_stream2"
}
layer {
  name: "conv4_2_stream3"
  type: "Convolution"
  bottom: "conv4_1_stream3"
  top: "conv4_2_stream3"
  param {
    name: "conv4_2_w"
    lr_mult: 0.166666666667
    decay_mult: 1
  }
  param {
    name: "conv4_2_b"
    lr_mult: 0.333333333333
    decay_mult: 0
  }
  convolution_param {
    num_output: 512
    pad: 1
    kernel_size: 3
    weight_filler {
      type: "xavier"
    }
    bias_filler {
      type: "constant"
      value: 0
    }
  }
}
layer {
  name: "relu4_2_stream3"
  type: "ReLU"
  bottom: "conv4_2_stream3"
  top: "conv4_2_stream3"
}
layer {
  name: "conv4_2_stream4"
  type: "Convolution"
  bottom: "conv4_1_stream4"
  top: "conv4_2_stream4"
  param {
    name: "conv4_2_w"
    lr_mult: 0.166666666667
    decay_mult: 1
  }
  param {
    name: "conv4_2_b"
    lr_mult: 0.333333333333
    decay_mult: 0
  }
  convolution_param {
    num_output: 512
    pad: 1
    kernel_size: 3
    weight_filler {
      type: "xavier"
    }
    bias_filler {
      type: "constant"
      value: 0
    }
  }
}
layer {
  name: "relu4_2_stream4"
  type: "ReLU"
  bottom: "conv4_2_stream4"
  top: "conv4_2_stream4"
}
layer {
  name: "conv4_2_stream5"
  type: "Convolution"
  bottom: "conv4_1_stream5"
  top: "conv4_2_stream5"
  param {
    name: "conv4_2_w"
    lr_mult: 0.166666666667
    decay_mult: 1
  }
  param {
    name: "conv4_2_b"
    lr_mult: 0.333333333333
    decay_mult: 0
  }
  convolution_param {
    num_output: 512
    pad: 1
    kernel_size: 3
    weight_filler {
      type: "xavier"
    }
    bias_filler {
      type: "constant"
      value: 0
    }
  }
}
layer {
  name: "relu4_2_stream5"
  type: "ReLU"
  bottom: "conv4_2_stream5"
  top: "conv4_2_stream5"
}
layer {
  name: "conv4_3_stream0"
  type: "Convolution"
  bottom: "conv4_2_stream0"
  top: "conv4_3_stream0"
  param {
    name: "conv4_3_w"
    lr_mult: 0.166666666667
    decay_mult: 1
  }
  param {
    name: "conv4_3_b"
    lr_mult: 0.333333333333
    decay_mult: 0
  }
  convolution_param {
    num_output: 512
    pad: 1
    kernel_size: 3
    weight_filler {
      type: "xavier"
    }
    bias_filler {
      type: "constant"
      value: 0
    }
  }
}
layer {
  name: "relu4_3_stream0"
  type: "ReLU"
  bottom: "conv4_3_stream0"
  top: "conv4_3_stream0"
}
layer {
  name: "conv4_3_stream1"
  type: "Convolution"
  bottom: "conv4_2_stream1"
  top: "conv4_3_stream1"
  param {
    name: "conv4_3_w"
    lr_mult: 0.166666666667
    decay_mult: 1
  }
  param {
    name: "conv4_3_b"
    lr_mult: 0.333333333333
    decay_mult: 0
  }
  convolution_param {
    num_output: 512
    pad: 1
    kernel_size: 3
    weight_filler {
      type: "xavier"
    }
    bias_filler {
      type: "constant"
      value: 0
    }
  }
}
layer {
  name: "relu4_3_stream1"
  type: "ReLU"
  bottom: "conv4_3_stream1"
  top: "conv4_3_stream1"
}
layer {
  name: "conv4_3_stream2"
  type: "Convolution"
  bottom: "conv4_2_stream2"
  top: "conv4_3_stream2"
  param {
    name: "conv4_3_w"
    lr_mult: 0.166666666667
    decay_mult: 1
  }
  param {
    name: "conv4_3_b"
    lr_mult: 0.333333333333
    decay_mult: 0
  }
  convolution_param {
    num_output: 512
    pad: 1
    kernel_size: 3
    weight_filler {
      type: "xavier"
    }
    bias_filler {
      type: "constant"
      value: 0
    }
  }
}
layer {
  name: "relu4_3_stream2"
  type: "ReLU"
  bottom: "conv4_3_stream2"
  top: "conv4_3_stream2"
}
layer {
  name: "conv4_3_stream3"
  type: "Convolution"
  bottom: "conv4_2_stream3"
  top: "conv4_3_stream3"
  param {
    name: "conv4_3_w"
    lr_mult: 0.166666666667
    decay_mult: 1
  }
  param {
    name: "conv4_3_b"
    lr_mult: 0.333333333333
    decay_mult: 0
  }
  convolution_param {
    num_output: 512
    pad: 1
    kernel_size: 3
    weight_filler {
      type: "xavier"
    }
    bias_filler {
      type: "constant"
      value: 0
    }
  }
}
layer {
  name: "relu4_3_stream3"
  type: "ReLU"
  bottom: "conv4_3_stream3"
  top: "conv4_3_stream3"
}
layer {
  name: "conv4_3_stream4"
  type: "Convolution"
  bottom: "conv4_2_stream4"
  top: "conv4_3_stream4"
  param {
    name: "conv4_3_w"
    lr_mult: 0.166666666667
    decay_mult: 1
  }
  param {
    name: "conv4_3_b"
    lr_mult: 0.333333333333
    decay_mult: 0
  }
  convolution_param {
    num_output: 512
    pad: 1
    kernel_size: 3
    weight_filler {
      type: "xavier"
    }
    bias_filler {
      type: "constant"
      value: 0
    }
  }
}
layer {
  name: "relu4_3_stream4"
  type: "ReLU"
  bottom: "conv4_3_stream4"
  top: "conv4_3_stream4"
}
layer {
  name: "conv4_3_stream5"
  type: "Convolution"
  bottom: "conv4_2_stream5"
  top: "conv4_3_stream5"
  param {
    name: "conv4_3_w"
    lr_mult: 0.166666666667
    decay_mult: 1
  }
  param {
    name: "conv4_3_b"
    lr_mult: 0.333333333333
    decay_mult: 0
  }
  convolution_param {
    num_output: 512
    pad: 1
    kernel_size: 3
    weight_filler {
      type: "xavier"
    }
    bias_filler {
      type: "constant"
      value: 0
    }
  }
}
layer {
  name: "relu4_3_stream5"
  type: "ReLU"
  bottom: "conv4_3_stream5"
  top: "conv4_3_stream5"
}
layer {
  name: "pool4_stream0"
  type: "Pooling"
  bottom: "conv4_3_stream0"
  top: "pool4_stream0"
  pooling_param {
    pool: MAX
    kernel_size: 2
    stride: 2
  }
}
layer {
  name: "pool4_stream1"
  type: "Pooling"
  bottom: "conv4_3_stream1"
  top: "pool4_stream1"
  pooling_param {
    pool: MAX
    kernel_size: 2
    stride: 2
  }
}
layer {
  name: "pool4_stream2"
  type: "Pooling"
  bottom: "conv4_3_stream2"
  top: "pool4_stream2"
  pooling_param {
    pool: MAX
    kernel_size: 2
    stride: 2
  }
}
layer {
  name: "pool4_stream3"
  type: "Pooling"
  bottom: "conv4_3_stream3"
  top: "pool4_stream3"
  pooling_param {
    pool: MAX
    kernel_size: 2
    stride: 2
  }
}
layer {
  name: "pool4_stream4"
  type: "Pooling"
  bottom: "conv4_3_stream4"
  top: "pool4_stream4"
  pooling_param {
    pool: MAX
    kernel_size: 2
    stride: 2
  }
}
layer {
  name: "pool4_stream5"
  type: "Pooling"
  bottom: "conv4_3_stream5"
  top: "pool4_stream5"
  pooling_param {
    pool: MAX
    kernel_size: 2
    stride: 2
  }
}
layer {
  name: "conv5_1_stream0"
  type: "Convolution"
  bottom: "pool4_stream0"
  top: "conv5_1_stream0"
  param {
    name: "conv5_1_w"
    lr_mult: 0.166666666667
    decay_mult: 1
  }
  param {
    name: "conv5_1_b"
    lr_mult: 0.333333333333
    decay_mult: 0
  }
  convolution_param {
    num_output: 512
    pad: 1
    kernel_size: 3
    weight_filler {
      type: "xavier"
    }
    bias_filler {
      type: "constant"
      value: 0
    }
    dilation: 1
  }
}
layer {
  name: "relu5_1_stream0"
  type: "ReLU"
  bottom: "conv5_1_stream0"
  top: "conv5_1_stream0"
}
layer {
  name: "conv5_1_stream1"
  type: "Convolution"
  bottom: "pool4_stream1"
  top: "conv5_1_stream1"
  param {
    name: "conv5_1_w"
    lr_mult: 0.166666666667
    decay_mult: 1
  }
  param {
    name: "conv5_1_b"
    lr_mult: 0.333333333333
    decay_mult: 0
  }
  convolution_param {
    num_output: 512
    pad: 1
    kernel_size: 3
    weight_filler {
      type: "xavier"
    }
    bias_filler {
      type: "constant"
      value: 0
    }
    dilation: 1
  }
}
layer {
  name: "relu5_1_stream1"
  type: "ReLU"
  bottom: "conv5_1_stream1"
  top: "conv5_1_stream1"
}
layer {
  name: "conv5_1_stream2"
  type: "Convolution"
  bottom: "pool4_stream2"
  top: "conv5_1_stream2"
  param {
    name: "conv5_1_w"
    lr_mult: 0.166666666667
    decay_mult: 1
  }
  param {
    name: "conv5_1_b"
    lr_mult: 0.333333333333
    decay_mult: 0
  }
  convolution_param {
    num_output: 512
    pad: 1
    kernel_size: 3
    weight_filler {
      type: "xavier"
    }
    bias_filler {
      type: "constant"
      value: 0
    }
    dilation: 1
  }
}
layer {
  name: "relu5_1_stream2"
  type: "ReLU"
  bottom: "conv5_1_stream2"
  top: "conv5_1_stream2"
}
layer {
  name: "conv5_1_stream3"
  type: "Convolution"
  bottom: "pool4_stream3"
  top: "conv5_1_stream3"
  param {
    name: "conv5_1_w"
    lr_mult: 0.166666666667
    decay_mult: 1
  }
  param {
    name: "conv5_1_b"
    lr_mult: 0.333333333333
    decay_mult: 0
  }
  convolution_param {
    num_output: 512
    pad: 1
    kernel_size: 3
    weight_filler {
      type: "xavier"
    }
    bias_filler {
      type: "constant"
      value: 0
    }
    dilation: 1
  }
}
layer {
  name: "relu5_1_stream3"
  type: "ReLU"
  bottom: "conv5_1_stream3"
  top: "conv5_1_stream3"
}
layer {
  name: "conv5_1_stream4"
  type: "Convolution"
  bottom: "pool4_stream4"
  top: "conv5_1_stream4"
  param {
    name: "conv5_1_w"
    lr_mult: 0.166666666667
    decay_mult: 1
  }
  param {
    name: "conv5_1_b"
    lr_mult: 0.333333333333
    decay_mult: 0
  }
  convolution_param {
    num_output: 512
    pad: 1
    kernel_size: 3
    weight_filler {
      type: "xavier"
    }
    bias_filler {
      type: "constant"
      value: 0
    }
    dilation: 1
  }
}
layer {
  name: "relu5_1_stream4"
  type: "ReLU"
  bottom: "conv5_1_stream4"
  top: "conv5_1_stream4"
}
layer {
  name: "conv5_1_stream5"
  type: "Convolution"
  bottom: "pool4_stream5"
  top: "conv5_1_stream5"
  param {
    name: "conv5_1_w"
    lr_mult: 0.166666666667
    decay_mult: 1
  }
  param {
    name: "conv5_1_b"
    lr_mult: 0.333333333333
    decay_mult: 0
  }
  convolution_param {
    num_output: 512
    pad: 1
    kernel_size: 3
    weight_filler {
      type: "xavier"
    }
    bias_filler {
      type: "constant"
      value: 0
    }
    dilation: 1
  }
}
layer {
  name: "relu5_1_stream5"
  type: "ReLU"
  bottom: "conv5_1_stream5"
  top: "conv5_1_stream5"
}
layer {
  name: "conv5_2_stream0"
  type: "Convolution"
  bottom: "conv5_1_stream0"
  top: "conv5_2_stream0"
  param {
    name: "conv5_2_w"
    lr_mult: 0.166666666667
    decay_mult: 1
  }
  param {
    name: "conv5_2_b"
    lr_mult: 0.333333333333
    decay_mult: 0
  }
  convolution_param {
    num_output: 512
    pad: 1
    kernel_size: 3
    weight_filler {
      type: "xavier"
    }
    bias_filler {
      type: "constant"
      value: 0
    }
    dilation: 1
  }
}
layer {
  name: "relu5_2_stream0"
  type: "ReLU"
  bottom: "conv5_2_stream0"
  top: "conv5_2_stream0"
}
layer {
  name: "conv5_2_stream1"
  type: "Convolution"
  bottom: "conv5_1_stream1"
  top: "conv5_2_stream1"
  param {
    name: "conv5_2_w"
    lr_mult: 0.166666666667
    decay_mult: 1
  }
  param {
    name: "conv5_2_b"
    lr_mult: 0.333333333333
    decay_mult: 0
  }
  convolution_param {
    num_output: 512
    pad: 1
    kernel_size: 3
    weight_filler {
      type: "xavier"
    }
    bias_filler {
      type: "constant"
      value: 0
    }
    dilation: 1
  }
}
layer {
  name: "relu5_2_stream1"
  type: "ReLU"
  bottom: "conv5_2_stream1"
  top: "conv5_2_stream1"
}
layer {
  name: "conv5_2_stream2"
  type: "Convolution"
  bottom: "conv5_1_stream2"
  top: "conv5_2_stream2"
  param {
    name: "conv5_2_w"
    lr_mult: 0.166666666667
    decay_mult: 1
  }
  param {
    name: "conv5_2_b"
    lr_mult: 0.333333333333
    decay_mult: 0
  }
  convolution_param {
    num_output: 512
    pad: 1
    kernel_size: 3
    weight_filler {
      type: "xavier"
    }
    bias_filler {
      type: "constant"
      value: 0
    }
    dilation: 1
  }
}
layer {
  name: "relu5_2_stream2"
  type: "ReLU"
  bottom: "conv5_2_stream2"
  top: "conv5_2_stream2"
}
layer {
  name: "conv5_2_stream3"
  type: "Convolution"
  bottom: "conv5_1_stream3"
  top: "conv5_2_stream3"
  param {
    name: "conv5_2_w"
    lr_mult: 0.166666666667
    decay_mult: 1
  }
  param {
    name: "conv5_2_b"
    lr_mult: 0.333333333333
    decay_mult: 0
  }
  convolution_param {
    num_output: 512
    pad: 1
    kernel_size: 3
    weight_filler {
      type: "xavier"
    }
    bias_filler {
      type: "constant"
      value: 0
    }
    dilation: 1
  }
}
layer {
  name: "relu5_2_stream3"
  type: "ReLU"
  bottom: "conv5_2_stream3"
  top: "conv5_2_stream3"
}
layer {
  name: "conv5_2_stream4"
  type: "Convolution"
  bottom: "conv5_1_stream4"
  top: "conv5_2_stream4"
  param {
    name: "conv5_2_w"
    lr_mult: 0.166666666667
    decay_mult: 1
  }
  param {
    name: "conv5_2_b"
    lr_mult: 0.333333333333
    decay_mult: 0
  }
  convolution_param {
    num_output: 512
    pad: 1
    kernel_size: 3
    weight_filler {
      type: "xavier"
    }
    bias_filler {
      type: "constant"
      value: 0
    }
    dilation: 1
  }
}
layer {
  name: "relu5_2_stream4"
  type: "ReLU"
  bottom: "conv5_2_stream4"
  top: "conv5_2_stream4"
}
layer {
  name: "conv5_2_stream5"
  type: "Convolution"
  bottom: "conv5_1_stream5"
  top: "conv5_2_stream5"
  param {
    name: "conv5_2_w"
    lr_mult: 0.166666666667
    decay_mult: 1
  }
  param {
    name: "conv5_2_b"
    lr_mult: 0.333333333333
    decay_mult: 0
  }
  convolution_param {
    num_output: 512
    pad: 1
    kernel_size: 3
    weight_filler {
      type: "xavier"
    }
    bias_filler {
      type: "constant"
      value: 0
    }
    dilation: 1
  }
}
layer {
  name: "relu5_2_stream5"
  type: "ReLU"
  bottom: "conv5_2_stream5"
  top: "conv5_2_stream5"
}
layer {
  name: "conv5_3_stream0"
  type: "Convolution"
  bottom: "conv5_2_stream0"
  top: "conv5_3_stream0"
  param {
    name: "conv5_3_w"
    lr_mult: 0.166666666667
    decay_mult: 1
  }
  param {
    name: "conv5_3_b"
    lr_mult: 0.333333333333
    decay_mult: 0
  }
  convolution_param {
    num_output: 512
    pad: 1
    kernel_size: 3
    weight_filler {
      type: "xavier"
    }
    bias_filler {
      type: "constant"
      value: 0
    }
    dilation: 1
  }
}
layer {
  name: "relu5_3_stream0"
  type: "ReLU"
  bottom: "conv5_3_stream0"
  top: "conv5_3_stream0"
}
layer {
  name: "conv5_3_stream1"
  type: "Convolution"
  bottom: "conv5_2_stream1"
  top: "conv5_3_stream1"
  param {
    name: "conv5_3_w"
    lr_mult: 0.166666666667
    decay_mult: 1
  }
  param {
    name: "conv5_3_b"
    lr_mult: 0.333333333333
    decay_mult: 0
  }
  convolution_param {
    num_output: 512
    pad: 1
    kernel_size: 3
    weight_filler {
      type: "xavier"
    }
    bias_filler {
      type: "constant"
      value: 0
    }
    dilation: 1
  }
}
layer {
  name: "relu5_3_stream1"
  type: "ReLU"
  bottom: "conv5_3_stream1"
  top: "conv5_3_stream1"
}
layer {
  name: "conv5_3_stream2"
  type: "Convolution"
  bottom: "conv5_2_stream2"
  top: "conv5_3_stream2"
  param {
    name: "conv5_3_w"
    lr_mult: 0.166666666667
    decay_mult: 1
  }
  param {
    name: "conv5_3_b"
    lr_mult: 0.333333333333
    decay_mult: 0
  }
  convolution_param {
    num_output: 512
    pad: 1
    kernel_size: 3
    weight_filler {
      type: "xavier"
    }
    bias_filler {
      type: "constant"
      value: 0
    }
    dilation: 1
  }
}
layer {
  name: "relu5_3_stream2"
  type: "ReLU"
  bottom: "conv5_3_stream2"
  top: "conv5_3_stream2"
}
layer {
  name: "conv5_3_stream3"
  type: "Convolution"
  bottom: "conv5_2_stream3"
  top: "conv5_3_stream3"
  param {
    name: "conv5_3_w"
    lr_mult: 0.166666666667
    decay_mult: 1
  }
  param {
    name: "conv5_3_b"
    lr_mult: 0.333333333333
    decay_mult: 0
  }
  convolution_param {
    num_output: 512
    pad: 1
    kernel_size: 3
    weight_filler {
      type: "xavier"
    }
    bias_filler {
      type: "constant"
      value: 0
    }
    dilation: 1
  }
}
layer {
  name: "relu5_3_stream3"
  type: "ReLU"
  bottom: "conv5_3_stream3"
  top: "conv5_3_stream3"
}
layer {
  name: "conv5_3_stream4"
  type: "Convolution"
  bottom: "conv5_2_stream4"
  top: "conv5_3_stream4"
  param {
    name: "conv5_3_w"
    lr_mult: 0.166666666667
    decay_mult: 1
  }
  param {
    name: "conv5_3_b"
    lr_mult: 0.333333333333
    decay_mult: 0
  }
  convolution_param {
    num_output: 512
    pad: 1
    kernel_size: 3
    weight_filler {
      type: "xavier"
    }
    bias_filler {
      type: "constant"
      value: 0
    }
    dilation: 1
  }
}
layer {
  name: "relu5_3_stream4"
  type: "ReLU"
  bottom: "conv5_3_stream4"
  top: "conv5_3_stream4"
}
layer {
  name: "conv5_3_stream5"
  type: "Convolution"
  bottom: "conv5_2_stream5"
  top: "conv5_3_stream5"
  param {
    name: "conv5_3_w"
    lr_mult: 0.166666666667
    decay_mult: 1
  }
  param {
    name: "conv5_3_b"
    lr_mult: 0.333333333333
    decay_mult: 0
  }
  convolution_param {
    num_output: 512
    pad: 1
    kernel_size: 3
    weight_filler {
      type: "xavier"
    }
    bias_filler {
      type: "constant"
      value: 0
    }
    dilation: 1
  }
}
layer {
  name: "relu5_3_stream5"
  type: "ReLU"
  bottom: "conv5_3_stream5"
  top: "conv5_3_stream5"
}
layer {
  name: "pool5_stream0"
  type: "Pooling"
  bottom: "conv5_3_stream0"
  top: "pool5_stream0"
  pooling_param {
    pool: MAX
    kernel_size: 2
    stride: 1
  }
}
layer {
  name: "fc6_stream0"
  type: "Convolution"
  bottom: "pool5_stream0"
  top: "fc6_stream0"
  param {
    name: "fc6_w"
    lr_mult: 0.166666666667
    decay_mult: 1
  }
  param {
    name: "fc6_b"
    lr_mult: 0.333333333333
    decay_mult: 0
  }
  convolution_param {
    num_output: 1024
    pad: 6
    kernel_size: 3
    weight_filler {
      type: "xavier"
    }
    bias_filler {
      type: "constant"
      value: 0
    }
    dilation: 6
  }
}
layer {
  name: "relu6_stream0"
  type: "ReLU"
  bottom: "fc6_stream0"
  top: "fc6_stream0"
}
layer {
  name: "fc7_stream0"
  type: "Convolution"
  bottom: "fc6_stream0"
  top: "fc7_stream0"
  param {
    name: "fc7_w"
    lr_mult: 0.166666666667
    decay_mult: 1
  }
  param {
    name: "fc7_b"
    lr_mult: 0.333333333333
    decay_mult: 0
  }
  convolution_param {
    num_output: 1024
    kernel_size: 1
    weight_filler {
      type: "xavier"
    }
    bias_filler {
      type: "constant"
      value: 0
    }
  }
}
layer {
  name: "relu7_stream0"
  type: "ReLU"
  bottom: "fc7_stream0"
  top: "fc7_stream0"
}
layer {
  name: "pool5_stream1"
  type: "Pooling"
  bottom: "conv5_3_stream1"
  top: "pool5_stream1"
  pooling_param {
    pool: MAX
    kernel_size: 2
    stride: 1
  }
}
layer {
  name: "fc6_stream1"
  type: "Convolution"
  bottom: "pool5_stream1"
  top: "fc6_stream1"
  param {
    name: "fc6_w"
    lr_mult: 0.166666666667
    decay_mult: 1
  }
  param {
    name: "fc6_b"
    lr_mult: 0.333333333333
    decay_mult: 0
  }
  convolution_param {
    num_output: 1024
    pad: 36
    kernel_size: 3
    weight_filler {
      type: "xavier"
    }
    bias_filler {
      type: "constant"
      value: 0
    }
    dilation: 36
  }
}
layer {
  name: "relu6_stream1"
  type: "ReLU"
  bottom: "fc6_stream1"
  top: "fc6_stream1"
}
layer {
  name: "fc7_stream1"
  type: "Convolution"
  bottom: "fc6_stream1"
  top: "fc7_stream1"
  param {
    name: "fc7_w"
    lr_mult: 0.166666666667
    decay_mult: 1
  }
  param {
    name: "fc7_b"
    lr_mult: 0.333333333333
    decay_mult: 0
  }
  convolution_param {
    num_output: 1024
    kernel_size: 1
    weight_filler {
      type: "xavier"
    }
    bias_filler {
      type: "constant"
      value: 0
    }
  }
}
layer {
  name: "relu7_stream1"
  type: "ReLU"
  bottom: "fc7_stream1"
  top: "fc7_stream1"
}
layer {
  name: "pool5_stream2"
  type: "Pooling"
  bottom: "conv5_3_stream2"
  top: "pool5_stream2"
  pooling_param {
    pool: MAX
    kernel_size: 2
    stride: 1
  }
}
layer {
  name: "fc6_stream2"
  type: "Convolution"
  bottom: "pool5_stream2"
  top: "fc6_stream2"
  param {
    name: "fc6_w"
    lr_mult: 0.166666666667
    decay_mult: 1
  }
  param {
    name: "fc6_b"
    lr_mult: 0.333333333333
    decay_mult: 0
  }
  convolution_param {
    num_output: 1024
    pad: 216
    kernel_size: 3
    weight_filler {
      type: "xavier"
    }
    bias_filler {
      type: "constant"
      value: 0
    }
    dilation: 216
  }
}
layer {
  name: "relu6_stream2"
  type: "ReLU"
  bottom: "fc6_stream2"
  top: "fc6_stream2"
}
layer {
  name: "fc7_stream2"
  type: "Convolution"
  bottom: "fc6_stream2"
  top: "fc7_stream2"
  param {
    name: "fc7_w"
    lr_mult: 0.166666666667
    decay_mult: 1
  }
  param {
    name: "fc7_b"
    lr_mult: 0.333333333333
    decay_mult: 0
  }
  convolution_param {
    num_output: 1024
    kernel_size: 1
    weight_filler {
      type: "xavier"
    }
    bias_filler {
      type: "constant"
      value: 0
    }
  }
}
layer {
  name: "relu7_stream2"
  type: "ReLU"
  bottom: "fc7_stream2"
  top: "fc7_stream2"
}
layer {
  name: "pool5_stream3"
  type: "Pooling"
  bottom: "conv5_3_stream3"
  top: "pool5_stream3"
  pooling_param {
    pool: MAX
    kernel_size: 2
    stride: 1
  }
}
layer {
  name: "fc6_stream3"
  type: "Convolution"
  bottom: "pool5_stream3"
  top: "fc6_stream3"
  param {
    name: "fc6_w"
    lr_mult: 0.166666666667
    decay_mult: 1
  }
  param {
    name: "fc6_b"
    lr_mult: 0.333333333333
    decay_mult: 0
  }
  convolution_param {
    num_output: 1024
    pad: 1296
    kernel_size: 3
    weight_filler {
      type: "xavier"
    }
    bias_filler {
      type: "constant"
      value: 0
    }
    dilation: 1296
  }
}
layer {
  name: "relu6_stream3"
  type: "ReLU"
  bottom: "fc6_stream3"
  top: "fc6_stream3"
}
layer {
  name: "fc7_stream3"
  type: "Convolution"
  bottom: "fc6_stream3"
  top: "fc7_stream3"
  param {
    name: "fc7_w"
    lr_mult: 0.166666666667
    decay_mult: 1
  }
  param {
    name: "fc7_b"
    lr_mult: 0.333333333333
    decay_mult: 0
  }
  convolution_param {
    num_output: 1024
    kernel_size: 1
    weight_filler {
      type: "xavier"
    }
    bias_filler {
      type: "constant"
      value: 0
    }
  }
}
layer {
  name: "relu7_stream3"
  type: "ReLU"
  bottom: "fc7_stream3"
  top: "fc7_stream3"
}
layer {
  name: "pool5_stream4"
  type: "Pooling"
  bottom: "conv5_3_stream4"
  top: "pool5_stream4"
  pooling_param {
    pool: MAX
    kernel_size: 2
    stride: 1
  }
}
layer {
  name: "fc6_stream4"
  type: "Convolution"
  bottom: "pool5_stream4"
  top: "fc6_stream4"
  param {
    name: "fc6_w"
    lr_mult: 0.166666666667
    decay_mult: 1
  }
  param {
    name: "fc6_b"
    lr_mult: 0.333333333333
    decay_mult: 0
  }
  convolution_param {
    num_output: 1024
    pad: 7776
    kernel_size: 3
    weight_filler {
      type: "xavier"
    }
    bias_filler {
      type: "constant"
      value: 0
    }
    dilation: 7776
  }
}
layer {
  name: "relu6_stream4"
  type: "ReLU"
  bottom: "fc6_stream4"
  top: "fc6_stream4"
}
layer {
  name: "fc7_stream4"
  type: "Convolution"
  bottom: "fc6_stream4"
  top: "fc7_stream4"
  param {
    name: "fc7_w"
    lr_mult: 0.166666666667
    decay_mult: 1
  }
  param {
    name: "fc7_b"
    lr_mult: 0.333333333333
    decay_mult: 0
  }
  convolution_param {
    num_output: 1024
    kernel_size: 1
    weight_filler {
      type: "xavier"
    }
    bias_filler {
      type: "constant"
      value: 0
    }
  }
}
layer {
  name: "relu7_stream4"
  type: "ReLU"
  bottom: "fc7_stream4"
  top: "fc7_stream4"
}
layer {
  name: "pool5_stream5"
  type: "Pooling"
  bottom: "conv5_3_stream5"
  top: "pool5_stream5"
  pooling_param {
    pool: MAX
    kernel_size: 2
    stride: 1
  }
}
layer {
  name: "fc6_stream5"
  type: "Convolution"
  bottom: "pool5_stream5"
  top: "fc6_stream5"
  param {
    name: "fc6_w"
    lr_mult: 0.166666666667
    decay_mult: 1
  }
  param {
    name: "fc6_b"
    lr_mult: 0.333333333333
    decay_mult: 0
  }
  convolution_param {
    num_output: 1024
    pad: 46656
    kernel_size: 3
    weight_filler {
      type: "xavier"
    }
    bias_filler {
      type: "constant"
      value: 0
    }
    dilation: 46656
  }
}
layer {
  name: "relu6_stream5"
  type: "ReLU"
  bottom: "fc6_stream5"
  top: "fc6_stream5"
}
layer {
  name: "fc7_stream5"
  type: "Convolution"
  bottom: "fc6_stream5"
  top: "fc7_stream5"
  param {
    name: "fc7_w"
    lr_mult: 0.166666666667
    decay_mult: 1
  }
  param {
    name: "fc7_b"
    lr_mult: 0.333333333333
    decay_mult: 0
  }
  convolution_param {
    num_output: 1024
    kernel_size: 1
    weight_filler {
      type: "xavier"
    }
    bias_filler {
      type: "constant"
      value: 0
    }
  }
}
layer {
  name: "relu7_stream5"
  type: "ReLU"
  bottom: "fc7_stream5"
  top: "fc7_stream5"
}
layer {
  name: "conv6_1_stream0"
  type: "Convolution"
  bottom: "fc7_stream0"
  top: "conv6_1_stream0"
  param {
    name: "conv6_1_w"
    lr_mult: 0.166666666667
    decay_mult: 1
  }
  param {
    name: "conv6_1_b"
    lr_mult: 0.333333333333
    decay_mult: 0
  }
  convolution_param {
    num_output: 256
    pad: 0
    kernel_size: 1
    stride: 1
    weight_filler {
      type: "xavier"
    }
    bias_filler {
      type: "constant"
      value: 0
    }
  }
}
layer {
  name: "conv6_1_stream0_relu"
  type: "ReLU"
  bottom: "conv6_1_stream0"
  top: "conv6_1_stream0"
}
layer {
  name: "conv6_2_stream0"
  type: "Convolution"
  bottom: "conv6_1_stream0"
  top: "conv6_2_stream0"
  param {
    name: "conv6_2_w"
    lr_mult: 0.166666666667
    decay_mult: 1
  }
  param {
    name: "conv6_2_b"
    lr_mult: 0.333333333333
    decay_mult: 0
  }
  convolution_param {
    num_output: 512
    pad: 1
    kernel_size: 3
    stride: 2
    weight_filler {
      type: "xavier"
    }
    bias_filler {
      type: "constant"
      value: 0
    }
  }
}
layer {
  name: "conv6_2_stream0_relu"
  type: "ReLU"
  bottom: "conv6_2_stream0"
  top: "conv6_2_stream0"
}
layer {
  name: "conv7_1_stream0"
  type: "Convolution"
  bottom: "conv6_2_stream0"
  top: "conv7_1_stream0"
  param {
    name: "conv7_1_w"
    lr_mult: 0.166666666667
    decay_mult: 1
  }
  param {
    name: "conv7_1_b"
    lr_mult: 0.333333333333
    decay_mult: 0
  }
  convolution_param {
    num_output: 128
    pad: 0
    kernel_size: 1
    stride: 1
    weight_filler {
      type: "xavier"
    }
    bias_filler {
      type: "constant"
      value: 0
    }
  }
}
layer {
  name: "conv7_1_stream0_relu"
  type: "ReLU"
  bottom: "conv7_1_stream0"
  top: "conv7_1_stream0"
}
layer {
  name: "conv7_2_stream0"
  type: "Convolution"
  bottom: "conv7_1_stream0"
  top: "conv7_2_stream0"
  param {
    name: "conv7_2_w"
    lr_mult: 0.166666666667
    decay_mult: 1
  }
  param {
    name: "conv7_2_b"
    lr_mult: 0.333333333333
    decay_mult: 0
  }
  convolution_param {
    num_output: 256
    pad: 1
    kernel_size: 3
    stride: 2
    weight_filler {
      type: "xavier"
    }
    bias_filler {
      type: "constant"
      value: 0
    }
  }
}
layer {
  name: "conv7_2_stream0_relu"
  type: "ReLU"
  bottom: "conv7_2_stream0"
  top: "conv7_2_stream0"
}
layer {
  name: "conv8_1_stream0"
  type: "Convolution"
  bottom: "conv7_2_stream0"
  top: "conv8_1_stream0"
  param {
    name: "conv8_1_w"
    lr_mult: 0.166666666667
    decay_mult: 1
  }
  param {
    name: "conv8_1_b"
    lr_mult: 0.333333333333
    decay_mult: 0
  }
  convolution_param {
    num_output: 128
    pad: 0
    kernel_size: 1
    stride: 1
    weight_filler {
      type: "xavier"
    }
    bias_filler {
      type: "constant"
      value: 0
    }
  }
}
layer {
  name: "conv8_1_stream0_relu"
  type: "ReLU"
  bottom: "conv8_1_stream0"
  top: "conv8_1_stream0"
}
layer {
  name: "conv8_2_stream0"
  type: "Convolution"
  bottom: "conv8_1_stream0"
  top: "conv8_2_stream0"
  param {
    name: "conv8_2_w"
    lr_mult: 0.166666666667
    decay_mult: 1
  }
  param {
    name: "conv8_2_b"
    lr_mult: 0.333333333333
    decay_mult: 0
  }
  convolution_param {
    num_output: 256
    pad: 0
    kernel_size: 3
    stride: 1
    weight_filler {
      type: "xavier"
    }
    bias_filler {
      type: "constant"
      value: 0
    }
  }
}
layer {
  name: "conv8_2_stream0_relu"
  type: "ReLU"
  bottom: "conv8_2_stream0"
  top: "conv8_2_stream0"
}
layer {
  name: "conv9_1_stream0"
  type: "Convolution"
  bottom: "conv8_2_stream0"
  top: "conv9_1_stream0"
  param {
    name: "conv9_1_w"
    lr_mult: 0.166666666667
    decay_mult: 1
  }
  param {
    name: "conv9_1_b"
    lr_mult: 0.333333333333
    decay_mult: 0
  }
  convolution_param {
    num_output: 128
    pad: 0
    kernel_size: 1
    stride: 1
    weight_filler {
      type: "xavier"
    }
    bias_filler {
      type: "constant"
      value: 0
    }
  }
}
layer {
  name: "conv9_1_stream0_relu"
  type: "ReLU"
  bottom: "conv9_1_stream0"
  top: "conv9_1_stream0"
}
layer {
  name: "conv9_2_stream0"
  type: "Convolution"
  bottom: "conv9_1_stream0"
  top: "conv9_2_stream0"
  param {
    name: "conv9_2_w"
    lr_mult: 0.166666666667
    decay_mult: 1
  }
  param {
    name: "conv9_2_b"
    lr_mult: 0.333333333333
    decay_mult: 0
  }
  convolution_param {
    num_output: 256
    pad: 0
    kernel_size: 3
    stride: 1
    weight_filler {
      type: "xavier"
    }
    bias_filler {
      type: "constant"
      value: 0
    }
  }
}
layer {
  name: "conv9_2_stream0_relu"
  type: "ReLU"
  bottom: "conv9_2_stream0"
  top: "conv9_2_stream0"
}
layer {
  name: "conv6_1_stream1"
  type: "Convolution"
  bottom: "fc7_stream1"
  top: "conv6_1_stream1"
  param {
    name: "conv6_1_w"
    lr_mult: 0.166666666667
    decay_mult: 1
  }
  param {
    name: "conv6_1_b"
    lr_mult: 0.333333333333
    decay_mult: 0
  }
  convolution_param {
    num_output: 256
    pad: 0
    kernel_size: 1
    stride: 1
    weight_filler {
      type: "xavier"
    }
    bias_filler {
      type: "constant"
      value: 0
    }
  }
}
layer {
  name: "conv6_1_stream1_relu"
  type: "ReLU"
  bottom: "conv6_1_stream1"
  top: "conv6_1_stream1"
}
layer {
  name: "conv6_2_stream1"
  type: "Convolution"
  bottom: "conv6_1_stream1"
  top: "conv6_2_stream1"
  param {
    name: "conv6_2_w"
    lr_mult: 0.166666666667
    decay_mult: 1
  }
  param {
    name: "conv6_2_b"
    lr_mult: 0.333333333333
    decay_mult: 0
  }
  convolution_param {
    num_output: 512
    pad: 1
    kernel_size: 3
    stride: 2
    weight_filler {
      type: "xavier"
    }
    bias_filler {
      type: "constant"
      value: 0
    }
  }
}
layer {
  name: "conv6_2_stream1_relu"
  type: "ReLU"
  bottom: "conv6_2_stream1"
  top: "conv6_2_stream1"
}
layer {
  name: "conv7_1_stream1"
  type: "Convolution"
  bottom: "conv6_2_stream1"
  top: "conv7_1_stream1"
  param {
    name: "conv7_1_w"
    lr_mult: 0.166666666667
    decay_mult: 1
  }
  param {
    name: "conv7_1_b"
    lr_mult: 0.333333333333
    decay_mult: 0
  }
  convolution_param {
    num_output: 128
    pad: 0
    kernel_size: 1
    stride: 1
    weight_filler {
      type: "xavier"
    }
    bias_filler {
      type: "constant"
      value: 0
    }
  }
}
layer {
  name: "conv7_1_stream1_relu"
  type: "ReLU"
  bottom: "conv7_1_stream1"
  top: "conv7_1_stream1"
}
layer {
  name: "conv7_2_stream1"
  type: "Convolution"
  bottom: "conv7_1_stream1"
  top: "conv7_2_stream1"
  param {
    name: "conv7_2_w"
    lr_mult: 0.166666666667
    decay_mult: 1
  }
  param {
    name: "conv7_2_b"
    lr_mult: 0.333333333333
    decay_mult: 0
  }
  convolution_param {
    num_output: 256
    pad: 1
    kernel_size: 3
    stride: 2
    weight_filler {
      type: "xavier"
    }
    bias_filler {
      type: "constant"
      value: 0
    }
  }
}
layer {
  name: "conv7_2_stream1_relu"
  type: "ReLU"
  bottom: "conv7_2_stream1"
  top: "conv7_2_stream1"
}
layer {
  name: "conv8_1_stream1"
  type: "Convolution"
  bottom: "conv7_2_stream1"
  top: "conv8_1_stream1"
  param {
    name: "conv8_1_w"
    lr_mult: 0.166666666667
    decay_mult: 1
  }
  param {
    name: "conv8_1_b"
    lr_mult: 0.333333333333
    decay_mult: 0
  }
  convolution_param {
    num_output: 128
    pad: 0
    kernel_size: 1
    stride: 1
    weight_filler {
      type: "xavier"
    }
    bias_filler {
      type: "constant"
      value: 0
    }
  }
}
layer {
  name: "conv8_1_stream1_relu"
  type: "ReLU"
  bottom: "conv8_1_stream1"
  top: "conv8_1_stream1"
}
layer {
  name: "conv8_2_stream1"
  type: "Convolution"
  bottom: "conv8_1_stream1"
  top: "conv8_2_stream1"
  param {
    name: "conv8_2_w"
    lr_mult: 0.166666666667
    decay_mult: 1
  }
  param {
    name: "conv8_2_b"
    lr_mult: 0.333333333333
    decay_mult: 0
  }
  convolution_param {
    num_output: 256
    pad: 0
    kernel_size: 3
    stride: 1
    weight_filler {
      type: "xavier"
    }
    bias_filler {
      type: "constant"
      value: 0
    }
  }
}
layer {
  name: "conv8_2_stream1_relu"
  type: "ReLU"
  bottom: "conv8_2_stream1"
  top: "conv8_2_stream1"
}
layer {
  name: "conv9_1_stream1"
  type: "Convolution"
  bottom: "conv8_2_stream1"
  top: "conv9_1_stream1"
  param {
    name: "conv9_1_w"
    lr_mult: 0.166666666667
    decay_mult: 1
  }
  param {
    name: "conv9_1_b"
    lr_mult: 0.333333333333
    decay_mult: 0
  }
  convolution_param {
    num_output: 128
    pad: 0
    kernel_size: 1
    stride: 1
    weight_filler {
      type: "xavier"
    }
    bias_filler {
      type: "constant"
      value: 0
    }
  }
}
layer {
  name: "conv9_1_stream1_relu"
  type: "ReLU"
  bottom: "conv9_1_stream1"
  top: "conv9_1_stream1"
}
layer {
  name: "conv9_2_stream1"
  type: "Convolution"
  bottom: "conv9_1_stream1"
  top: "conv9_2_stream1"
  param {
    name: "conv9_2_w"
    lr_mult: 0.166666666667
    decay_mult: 1
  }
  param {
    name: "conv9_2_b"
    lr_mult: 0.333333333333
    decay_mult: 0
  }
  convolution_param {
    num_output: 256
    pad: 0
    kernel_size: 3
    stride: 1
    weight_filler {
      type: "xavier"
    }
    bias_filler {
      type: "constant"
      value: 0
    }
  }
}
layer {
  name: "conv9_2_stream1_relu"
  type: "ReLU"
  bottom: "conv9_2_stream1"
  top: "conv9_2_stream1"
}
layer {
  name: "conv6_1_stream2"
  type: "Convolution"
  bottom: "fc7_stream2"
  top: "conv6_1_stream2"
  param {
    name: "conv6_1_w"
    lr_mult: 0.166666666667
    decay_mult: 1
  }
  param {
    name: "conv6_1_b"
    lr_mult: 0.333333333333
    decay_mult: 0
  }
  convolution_param {
    num_output: 256
    pad: 0
    kernel_size: 1
    stride: 1
    weight_filler {
      type: "xavier"
    }
    bias_filler {
      type: "constant"
      value: 0
    }
  }
}
layer {
  name: "conv6_1_stream2_relu"
  type: "ReLU"
  bottom: "conv6_1_stream2"
  top: "conv6_1_stream2"
}
layer {
  name: "conv6_2_stream2"
  type: "Convolution"
  bottom: "conv6_1_stream2"
  top: "conv6_2_stream2"
  param {
    name: "conv6_2_w"
    lr_mult: 0.166666666667
    decay_mult: 1
  }
  param {
    name: "conv6_2_b"
    lr_mult: 0.333333333333
    decay_mult: 0
  }
  convolution_param {
    num_output: 512
    pad: 1
    kernel_size: 3
    stride: 2
    weight_filler {
      type: "xavier"
    }
    bias_filler {
      type: "constant"
      value: 0
    }
  }
}
layer {
  name: "conv6_2_stream2_relu"
  type: "ReLU"
  bottom: "conv6_2_stream2"
  top: "conv6_2_stream2"
}
layer {
  name: "conv7_1_stream2"
  type: "Convolution"
  bottom: "conv6_2_stream2"
  top: "conv7_1_stream2"
  param {
    name: "conv7_1_w"
    lr_mult: 0.166666666667
    decay_mult: 1
  }
  param {
    name: "conv7_1_b"
    lr_mult: 0.333333333333
    decay_mult: 0
  }
  convolution_param {
    num_output: 128
    pad: 0
    kernel_size: 1
    stride: 1
    weight_filler {
      type: "xavier"
    }
    bias_filler {
      type: "constant"
      value: 0
    }
  }
}
layer {
  name: "conv7_1_stream2_relu"
  type: "ReLU"
  bottom: "conv7_1_stream2"
  top: "conv7_1_stream2"
}
layer {
  name: "conv7_2_stream2"
  type: "Convolution"
  bottom: "conv7_1_stream2"
  top: "conv7_2_stream2"
  param {
    name: "conv7_2_w"
    lr_mult: 0.166666666667
    decay_mult: 1
  }
  param {
    name: "conv7_2_b"
    lr_mult: 0.333333333333
    decay_mult: 0
  }
  convolution_param {
    num_output: 256
    pad: 1
    kernel_size: 3
    stride: 2
    weight_filler {
      type: "xavier"
    }
    bias_filler {
      type: "constant"
      value: 0
    }
  }
}
layer {
  name: "conv7_2_stream2_relu"
  type: "ReLU"
  bottom: "conv7_2_stream2"
  top: "conv7_2_stream2"
}
layer {
  name: "conv8_1_stream2"
  type: "Convolution"
  bottom: "conv7_2_stream2"
  top: "conv8_1_stream2"
  param {
    name: "conv8_1_w"
    lr_mult: 0.166666666667
    decay_mult: 1
  }
  param {
    name: "conv8_1_b"
    lr_mult: 0.333333333333
    decay_mult: 0
  }
  convolution_param {
    num_output: 128
    pad: 0
    kernel_size: 1
    stride: 1
    weight_filler {
      type: "xavier"
    }
    bias_filler {
      type: "constant"
      value: 0
    }
  }
}
layer {
  name: "conv8_1_stream2_relu"
  type: "ReLU"
  bottom: "conv8_1_stream2"
  top: "conv8_1_stream2"
}
layer {
  name: "conv8_2_stream2"
  type: "Convolution"
  bottom: "conv8_1_stream2"
  top: "conv8_2_stream2"
  param {
    name: "conv8_2_w"
    lr_mult: 0.166666666667
    decay_mult: 1
  }
  param {
    name: "conv8_2_b"
    lr_mult: 0.333333333333
    decay_mult: 0
  }
  convolution_param {
    num_output: 256
    pad: 0
    kernel_size: 3
    stride: 1
    weight_filler {
      type: "xavier"
    }
    bias_filler {
      type: "constant"
      value: 0
    }
  }
}
layer {
  name: "conv8_2_stream2_relu"
  type: "ReLU"
  bottom: "conv8_2_stream2"
  top: "conv8_2_stream2"
}
layer {
  name: "conv9_1_stream2"
  type: "Convolution"
  bottom: "conv8_2_stream2"
  top: "conv9_1_stream2"
  param {
    name: "conv9_1_w"
    lr_mult: 0.166666666667
    decay_mult: 1
  }
  param {
    name: "conv9_1_b"
    lr_mult: 0.333333333333
    decay_mult: 0
  }
  convolution_param {
    num_output: 128
    pad: 0
    kernel_size: 1
    stride: 1
    weight_filler {
      type: "xavier"
    }
    bias_filler {
      type: "constant"
      value: 0
    }
  }
}
layer {
  name: "conv9_1_stream2_relu"
  type: "ReLU"
  bottom: "conv9_1_stream2"
  top: "conv9_1_stream2"
}
layer {
  name: "conv9_2_stream2"
  type: "Convolution"
  bottom: "conv9_1_stream2"
  top: "conv9_2_stream2"
  param {
    name: "conv9_2_w"
    lr_mult: 0.166666666667
    decay_mult: 1
  }
  param {
    name: "conv9_2_b"
    lr_mult: 0.333333333333
    decay_mult: 0
  }
  convolution_param {
    num_output: 256
    pad: 0
    kernel_size: 3
    stride: 1
    weight_filler {
      type: "xavier"
    }
    bias_filler {
      type: "constant"
      value: 0
    }
  }
}
layer {
  name: "conv9_2_stream2_relu"
  type: "ReLU"
  bottom: "conv9_2_stream2"
  top: "conv9_2_stream2"
}
layer {
  name: "conv6_1_stream3"
  type: "Convolution"
  bottom: "fc7_stream3"
  top: "conv6_1_stream3"
  param {
    name: "conv6_1_w"
    lr_mult: 0.166666666667
    decay_mult: 1
  }
  param {
    name: "conv6_1_b"
    lr_mult: 0.333333333333
    decay_mult: 0
  }
  convolution_param {
    num_output: 256
    pad: 0
    kernel_size: 1
    stride: 1
    weight_filler {
      type: "xavier"
    }
    bias_filler {
      type: "constant"
      value: 0
    }
  }
}
layer {
  name: "conv6_1_stream3_relu"
  type: "ReLU"
  bottom: "conv6_1_stream3"
  top: "conv6_1_stream3"
}
layer {
  name: "conv6_2_stream3"
  type: "Convolution"
  bottom: "conv6_1_stream3"
  top: "conv6_2_stream3"
  param {
    name: "conv6_2_w"
    lr_mult: 0.166666666667
    decay_mult: 1
  }
  param {
    name: "conv6_2_b"
    lr_mult: 0.333333333333
    decay_mult: 0
  }
  convolution_param {
    num_output: 512
    pad: 1
    kernel_size: 3
    stride: 2
    weight_filler {
      type: "xavier"
    }
    bias_filler {
      type: "constant"
      value: 0
    }
  }
}
layer {
  name: "conv6_2_stream3_relu"
  type: "ReLU"
  bottom: "conv6_2_stream3"
  top: "conv6_2_stream3"
}
layer {
  name: "conv7_1_stream3"
  type: "Convolution"
  bottom: "conv6_2_stream3"
  top: "conv7_1_stream3"
  param {
    name: "conv7_1_w"
    lr_mult: 0.166666666667
    decay_mult: 1
  }
  param {
    name: "conv7_1_b"
    lr_mult: 0.333333333333
    decay_mult: 0
  }
  convolution_param {
    num_output: 128
    pad: 0
    kernel_size: 1
    stride: 1
    weight_filler {
      type: "xavier"
    }
    bias_filler {
      type: "constant"
      value: 0
    }
  }
}
layer {
  name: "conv7_1_stream3_relu"
  type: "ReLU"
  bottom: "conv7_1_stream3"
  top: "conv7_1_stream3"
}
layer {
  name: "conv7_2_stream3"
  type: "Convolution"
  bottom: "conv7_1_stream3"
  top: "conv7_2_stream3"
  param {
    name: "conv7_2_w"
    lr_mult: 0.166666666667
    decay_mult: 1
  }
  param {
    name: "conv7_2_b"
    lr_mult: 0.333333333333
    decay_mult: 0
  }
  convolution_param {
    num_output: 256
    pad: 1
    kernel_size: 3
    stride: 2
    weight_filler {
      type: "xavier"
    }
    bias_filler {
      type: "constant"
      value: 0
    }
  }
}
layer {
  name: "conv7_2_stream3_relu"
  type: "ReLU"
  bottom: "conv7_2_stream3"
  top: "conv7_2_stream3"
}
layer {
  name: "conv8_1_stream3"
  type: "Convolution"
  bottom: "conv7_2_stream3"
  top: "conv8_1_stream3"
  param {
    name: "conv8_1_w"
    lr_mult: 0.166666666667
    decay_mult: 1
  }
  param {
    name: "conv8_1_b"
    lr_mult: 0.333333333333
    decay_mult: 0
  }
  convolution_param {
    num_output: 128
    pad: 0
    kernel_size: 1
    stride: 1
    weight_filler {
      type: "xavier"
    }
    bias_filler {
      type: "constant"
      value: 0
    }
  }
}
layer {
  name: "conv8_1_stream3_relu"
  type: "ReLU"
  bottom: "conv8_1_stream3"
  top: "conv8_1_stream3"
}
layer {
  name: "conv8_2_stream3"
  type: "Convolution"
  bottom: "conv8_1_stream3"
  top: "conv8_2_stream3"
  param {
    name: "conv8_2_w"
    lr_mult: 0.166666666667
    decay_mult: 1
  }
  param {
    name: "conv8_2_b"
    lr_mult: 0.333333333333
    decay_mult: 0
  }
  convolution_param {
    num_output: 256
    pad: 0
    kernel_size: 3
    stride: 1
    weight_filler {
      type: "xavier"
    }
    bias_filler {
      type: "constant"
      value: 0
    }
  }
}
layer {
  name: "conv8_2_stream3_relu"
  type: "ReLU"
  bottom: "conv8_2_stream3"
  top: "conv8_2_stream3"
}
layer {
  name: "conv9_1_stream3"
  type: "Convolution"
  bottom: "conv8_2_stream3"
  top: "conv9_1_stream3"
  param {
    name: "conv9_1_w"
    lr_mult: 0.166666666667
    decay_mult: 1
  }
  param {
    name: "conv9_1_b"
    lr_mult: 0.333333333333
    decay_mult: 0
  }
  convolution_param {
    num_output: 128
    pad: 0
    kernel_size: 1
    stride: 1
    weight_filler {
      type: "xavier"
    }
    bias_filler {
      type: "constant"
      value: 0
    }
  }
}
layer {
  name: "conv9_1_stream3_relu"
  type: "ReLU"
  bottom: "conv9_1_stream3"
  top: "conv9_1_stream3"
}
layer {
  name: "conv9_2_stream3"
  type: "Convolution"
  bottom: "conv9_1_stream3"
  top: "conv9_2_stream3"
  param {
    name: "conv9_2_w"
    lr_mult: 0.166666666667
    decay_mult: 1
  }
  param {
    name: "conv9_2_b"
    lr_mult: 0.333333333333
    decay_mult: 0
  }
  convolution_param {
    num_output: 256
    pad: 0
    kernel_size: 3
    stride: 1
    weight_filler {
      type: "xavier"
    }
    bias_filler {
      type: "constant"
      value: 0
    }
  }
}
layer {
  name: "conv9_2_stream3_relu"
  type: "ReLU"
  bottom: "conv9_2_stream3"
  top: "conv9_2_stream3"
}
layer {
  name: "conv6_1_stream4"
  type: "Convolution"
  bottom: "fc7_stream4"
  top: "conv6_1_stream4"
  param {
    name: "conv6_1_w"
    lr_mult: 0.166666666667
    decay_mult: 1
  }
  param {
    name: "conv6_1_b"
    lr_mult: 0.333333333333
    decay_mult: 0
  }
  convolution_param {
    num_output: 256
    pad: 0
    kernel_size: 1
    stride: 1
    weight_filler {
      type: "xavier"
    }
    bias_filler {
      type: "constant"
      value: 0
    }
  }
}
layer {
  name: "conv6_1_stream4_relu"
  type: "ReLU"
  bottom: "conv6_1_stream4"
  top: "conv6_1_stream4"
}
layer {
  name: "conv6_2_stream4"
  type: "Convolution"
  bottom: "conv6_1_stream4"
  top: "conv6_2_stream4"
  param {
    name: "conv6_2_w"
    lr_mult: 0.166666666667
    decay_mult: 1
  }
  param {
    name: "conv6_2_b"
    lr_mult: 0.333333333333
    decay_mult: 0
  }
  convolution_param {
    num_output: 512
    pad: 1
    kernel_size: 3
    stride: 2
    weight_filler {
      type: "xavier"
    }
    bias_filler {
      type: "constant"
      value: 0
    }
  }
}
layer {
  name: "conv6_2_stream4_relu"
  type: "ReLU"
  bottom: "conv6_2_stream4"
  top: "conv6_2_stream4"
}
layer {
  name: "conv7_1_stream4"
  type: "Convolution"
  bottom: "conv6_2_stream4"
  top: "conv7_1_stream4"
  param {
    name: "conv7_1_w"
    lr_mult: 0.166666666667
    decay_mult: 1
  }
  param {
    name: "conv7_1_b"
    lr_mult: 0.333333333333
    decay_mult: 0
  }
  convolution_param {
    num_output: 128
    pad: 0
    kernel_size: 1
    stride: 1
    weight_filler {
      type: "xavier"
    }
    bias_filler {
      type: "constant"
      value: 0
    }
  }
}
layer {
  name: "conv7_1_stream4_relu"
  type: "ReLU"
  bottom: "conv7_1_stream4"
  top: "conv7_1_stream4"
}
layer {
  name: "conv7_2_stream4"
  type: "Convolution"
  bottom: "conv7_1_stream4"
  top: "conv7_2_stream4"
  param {
    name: "conv7_2_w"
    lr_mult: 0.166666666667
    decay_mult: 1
  }
  param {
    name: "conv7_2_b"
    lr_mult: 0.333333333333
    decay_mult: 0
  }
  convolution_param {
    num_output: 256
    pad: 1
    kernel_size: 3
    stride: 2
    weight_filler {
      type: "xavier"
    }
    bias_filler {
      type: "constant"
      value: 0
    }
  }
}
layer {
  name: "conv7_2_stream4_relu"
  type: "ReLU"
  bottom: "conv7_2_stream4"
  top: "conv7_2_stream4"
}
layer {
  name: "conv8_1_stream4"
  type: "Convolution"
  bottom: "conv7_2_stream4"
  top: "conv8_1_stream4"
  param {
    name: "conv8_1_w"
    lr_mult: 0.166666666667
    decay_mult: 1
  }
  param {
    name: "conv8_1_b"
    lr_mult: 0.333333333333
    decay_mult: 0
  }
  convolution_param {
    num_output: 128
    pad: 0
    kernel_size: 1
    stride: 1
    weight_filler {
      type: "xavier"
    }
    bias_filler {
      type: "constant"
      value: 0
    }
  }
}
layer {
  name: "conv8_1_stream4_relu"
  type: "ReLU"
  bottom: "conv8_1_stream4"
  top: "conv8_1_stream4"
}
layer {
  name: "conv8_2_stream4"
  type: "Convolution"
  bottom: "conv8_1_stream4"
  top: "conv8_2_stream4"
  param {
    name: "conv8_2_w"
    lr_mult: 0.166666666667
    decay_mult: 1
  }
  param {
    name: "conv8_2_b"
    lr_mult: 0.333333333333
    decay_mult: 0
  }
  convolution_param {
    num_output: 256
    pad: 0
    kernel_size: 3
    stride: 1
    weight_filler {
      type: "xavier"
    }
    bias_filler {
      type: "constant"
      value: 0
    }
  }
}
layer {
  name: "conv8_2_stream4_relu"
  type: "ReLU"
  bottom: "conv8_2_stream4"
  top: "conv8_2_stream4"
}
layer {
  name: "conv9_1_stream4"
  type: "Convolution"
  bottom: "conv8_2_stream4"
  top: "conv9_1_stream4"
  param {
    name: "conv9_1_w"
    lr_mult: 0.166666666667
    decay_mult: 1
  }
  param {
    name: "conv9_1_b"
    lr_mult: 0.333333333333
    decay_mult: 0
  }
  convolution_param {
    num_output: 128
    pad: 0
    kernel_size: 1
    stride: 1
    weight_filler {
      type: "xavier"
    }
    bias_filler {
      type: "constant"
      value: 0
    }
  }
}
layer {
  name: "conv9_1_stream4_relu"
  type: "ReLU"
  bottom: "conv9_1_stream4"
  top: "conv9_1_stream4"
}
layer {
  name: "conv9_2_stream4"
  type: "Convolution"
  bottom: "conv9_1_stream4"
  top: "conv9_2_stream4"
  param {
    name: "conv9_2_w"
    lr_mult: 0.166666666667
    decay_mult: 1
  }
  param {
    name: "conv9_2_b"
    lr_mult: 0.333333333333
    decay_mult: 0
  }
  convolution_param {
    num_output: 256
    pad: 0
    kernel_size: 3
    stride: 1
    weight_filler {
      type: "xavier"
    }
    bias_filler {
      type: "constant"
      value: 0
    }
  }
}
layer {
  name: "conv9_2_stream4_relu"
  type: "ReLU"
  bottom: "conv9_2_stream4"
  top: "conv9_2_stream4"
}
layer {
  name: "conv6_1_stream5"
  type: "Convolution"
  bottom: "fc7_stream5"
  top: "conv6_1_stream5"
  param {
    name: "conv6_1_w"
    lr_mult: 0.166666666667
    decay_mult: 1
  }
  param {
    name: "conv6_1_b"
    lr_mult: 0.333333333333
    decay_mult: 0
  }
  convolution_param {
    num_output: 256
    pad: 0
    kernel_size: 1
    stride: 1
    weight_filler {
      type: "xavier"
    }
    bias_filler {
      type: "constant"
      value: 0
    }
  }
}
layer {
  name: "conv6_1_stream5_relu"
  type: "ReLU"
  bottom: "conv6_1_stream5"
  top: "conv6_1_stream5"
}
layer {
  name: "conv6_2_stream5"
  type: "Convolution"
  bottom: "conv6_1_stream5"
  top: "conv6_2_stream5"
  param {
    name: "conv6_2_w"
    lr_mult: 0.166666666667
    decay_mult: 1
  }
  param {
    name: "conv6_2_b"
    lr_mult: 0.333333333333
    decay_mult: 0
  }
  convolution_param {
    num_output: 512
    pad: 1
    kernel_size: 3
    stride: 2
    weight_filler {
      type: "xavier"
    }
    bias_filler {
      type: "constant"
      value: 0
    }
  }
}
layer {
  name: "conv6_2_stream5_relu"
  type: "ReLU"
  bottom: "conv6_2_stream5"
  top: "conv6_2_stream5"
}
layer {
  name: "conv7_1_stream5"
  type: "Convolution"
  bottom: "conv6_2_stream5"
  top: "conv7_1_stream5"
  param {
    name: "conv7_1_w"
    lr_mult: 0.166666666667
    decay_mult: 1
  }
  param {
    name: "conv7_1_b"
    lr_mult: 0.333333333333
    decay_mult: 0
  }
  convolution_param {
    num_output: 128
    pad: 0
    kernel_size: 1
    stride: 1
    weight_filler {
      type: "xavier"
    }
    bias_filler {
      type: "constant"
      value: 0
    }
  }
}
layer {
  name: "conv7_1_stream5_relu"
  type: "ReLU"
  bottom: "conv7_1_stream5"
  top: "conv7_1_stream5"
}
layer {
  name: "conv7_2_stream5"
  type: "Convolution"
  bottom: "conv7_1_stream5"
  top: "conv7_2_stream5"
  param {
    name: "conv7_2_w"
    lr_mult: 0.166666666667
    decay_mult: 1
  }
  param {
    name: "conv7_2_b"
    lr_mult: 0.333333333333
    decay_mult: 0
  }
  convolution_param {
    num_output: 256
    pad: 1
    kernel_size: 3
    stride: 2
    weight_filler {
      type: "xavier"
    }
    bias_filler {
      type: "constant"
      value: 0
    }
  }
}
layer {
  name: "conv7_2_stream5_relu"
  type: "ReLU"
  bottom: "conv7_2_stream5"
  top: "conv7_2_stream5"
}
layer {
  name: "conv8_1_stream5"
  type: "Convolution"
  bottom: "conv7_2_stream5"
  top: "conv8_1_stream5"
  param {
    name: "conv8_1_w"
    lr_mult: 0.166666666667
    decay_mult: 1
  }
  param {
    name: "conv8_1_b"
    lr_mult: 0.333333333333
    decay_mult: 0
  }
  convolution_param {
    num_output: 128
    pad: 0
    kernel_size: 1
    stride: 1
    weight_filler {
      type: "xavier"
    }
    bias_filler {
      type: "constant"
      value: 0
    }
  }
}
layer {
  name: "conv8_1_stream5_relu"
  type: "ReLU"
  bottom: "conv8_1_stream5"
  top: "conv8_1_stream5"
}
layer {
  name: "conv8_2_stream5"
  type: "Convolution"
  bottom: "conv8_1_stream5"
  top: "conv8_2_stream5"
  param {
    name: "conv8_2_w"
    lr_mult: 0.166666666667
    decay_mult: 1
  }
  param {
    name: "conv8_2_b"
    lr_mult: 0.333333333333
    decay_mult: 0
  }
  convolution_param {
    num_output: 256
    pad: 0
    kernel_size: 3
    stride: 1
    weight_filler {
      type: "xavier"
    }
    bias_filler {
      type: "constant"
      value: 0
    }
  }
}
layer {
  name: "conv8_2_stream5_relu"
  type: "ReLU"
  bottom: "conv8_2_stream5"
  top: "conv8_2_stream5"
}
layer {
  name: "conv9_1_stream5"
  type: "Convolution"
  bottom: "conv8_2_stream5"
  top: "conv9_1_stream5"
  param {
    name: "conv9_1_w"
    lr_mult: 0.166666666667
    decay_mult: 1
  }
  param {
    name: "conv9_1_b"
    lr_mult: 0.333333333333
    decay_mult: 0
  }
  convolution_param {
    num_output: 128
    pad: 0
    kernel_size: 1
    stride: 1
    weight_filler {
      type: "xavier"
    }
    bias_filler {
      type: "constant"
      value: 0
    }
  }
}
layer {
  name: "conv9_1_stream5_relu"
  type: "ReLU"
  bottom: "conv9_1_stream5"
  top: "conv9_1_stream5"
}
layer {
  name: "conv9_2_stream5"
  type: "Convolution"
  bottom: "conv9_1_stream5"
  top: "conv9_2_stream5"
  param {
    name: "conv9_2_w"
    lr_mult: 0.166666666667
    decay_mult: 1
  }
  param {
    name: "conv9_2_b"
    lr_mult: 0.333333333333
    decay_mult: 0
  }
  convolution_param {
    num_output: 256
    pad: 0
    kernel_size: 3
    stride: 1
    weight_filler {
      type: "xavier"
    }
    bias_filler {
      type: "constant"
      value: 0
    }
  }
}
layer {
  name: "conv9_2_stream5_relu"
  type: "ReLU"
  bottom: "conv9_2_stream5"
  top: "conv9_2_stream5"
}
layer {
  name: "conv4_3_norm_stream0"
  type: "Normalize"
  bottom: "conv4_3_stream0"
  top: "conv4_3_norm_stream0"
  norm_param {
    across_spatial: false
    scale_filler {
      type: "constant"
      value: 20
    }
    channel_shared: false
  }
}
layer {
  name: "conv4_3_norm_stream1"
  type: "Normalize"
  bottom: "conv4_3_stream1"
  top: "conv4_3_norm_stream1"
  norm_param {
    across_spatial: false
    scale_filler {
      type: "constant"
      value: 20
    }
    channel_shared: false
  }
}
layer {
  name: "conv4_3_norm_stream2"
  type: "Normalize"
  bottom: "conv4_3_stream2"
  top: "conv4_3_norm_stream2"
  norm_param {
    across_spatial: false
    scale_filler {
      type: "constant"
      value: 20
    }
    channel_shared: false
  }
}
layer {
  name: "conv4_3_norm_stream3"
  type: "Normalize"
  bottom: "conv4_3_stream3"
  top: "conv4_3_norm_stream3"
  norm_param {
    across_spatial: false
    scale_filler {
      type: "constant"
      value: 20
    }
    channel_shared: false
  }
}
layer {
  name: "conv4_3_norm_stream4"
  type: "Normalize"
  bottom: "conv4_3_stream4"
  top: "conv4_3_norm_stream4"
  norm_param {
    across_spatial: false
    scale_filler {
      type: "constant"
      value: 20
    }
    channel_shared: false
  }
}
layer {
  name: "conv4_3_norm_stream5"
  type: "Normalize"
  bottom: "conv4_3_stream5"
  top: "conv4_3_norm_stream5"
  norm_param {
    across_spatial: false
    scale_filler {
      type: "constant"
      value: 20
    }
    channel_shared: false
  }
}
layer {
  name: "conv4_3_norm_concat"
  type: "Concat"
  bottom: "conv4_3_norm_stream0"
  bottom: "conv4_3_norm_stream1"
  bottom: "conv4_3_norm_stream2"
  bottom: "conv4_3_norm_stream3"
  bottom: "conv4_3_norm_stream4"
  bottom: "conv4_3_norm_stream5"
  top: "conv4_3_norm_concat"
  concat_param {
    axis: 1
  }
}
layer {
  name: "conv4_3_norm_concat_act_loc"
  type: "Convolution"
  bottom: "conv4_3_norm_concat"
  top: "conv4_3_norm_concat_act_loc"
  param {
    lr_mult: 1.0
    decay_mult: 1
  }
  param {
    lr_mult: 2.0
    decay_mult: 0
  }
  convolution_param {
    num_output: 96
    pad: 1
    kernel_size: 3
    stride: 1
    weight_filler {
      type: "xavier"
    }
    bias_filler {
      type: "constant"
      value: 0
    }
  }
}
layer {
  name: "conv4_3_norm_concat_act_loc_perm"
  type: "Permute"
  bottom: "conv4_3_norm_concat_act_loc"
  top: "conv4_3_norm_concat_act_loc_perm"
  permute_param {
    order: 0
    order: 2
    order: 3
    order: 1
  }
}
layer {
  name: "conv4_3_norm_concat_act_loc_flat"
  type: "Flatten"
  bottom: "conv4_3_norm_concat_act_loc_perm"
  top: "conv4_3_norm_concat_act_loc_flat"
  flatten_param {
    axis: 1
  }
}
layer {
  name: "conv4_3_norm_concat_act_conf"
  type: "Convolution"
  bottom: "conv4_3_norm_concat"
  top: "conv4_3_norm_concat_act_conf"
  param {
    lr_mult: 1.0
    decay_mult: 1
  }
  param {
    lr_mult: 2.0
    decay_mult: 0
  }
  convolution_param {
    num_output: 88
    pad: 1
    kernel_size: 3
    stride: 1
    weight_filler {
      type: "xavier"
    }
    bias_filler {
      type: "constant"
      value: 0
    }
  }
}
layer {
  name: "conv4_3_norm_concat_act_conf_perm"
  type: "Permute"
  bottom: "conv4_3_norm_concat_act_conf"
  top: "conv4_3_norm_concat_act_conf_perm"
  permute_param {
    order: 0
    order: 2
    order: 3
    order: 1
  }
}
layer {
  name: "conv4_3_norm_concat_act_conf_flat"
  type: "Flatten"
  bottom: "conv4_3_norm_concat_act_conf_perm"
  top: "conv4_3_norm_concat_act_conf_flat"
  flatten_param {
    axis: 1
  }
}
layer {
  name: "conv4_3_norm_concat_act_priorbox"
  type: "PriorBox"
  bottom: "conv4_3_norm_concat"
  bottom: "data_stream0"
  top: "conv4_3_norm_concat_act_priorbox"
  prior_box_param {
    min_size: 30.0
    max_size: 60.0
    aspect_ratio: 2
    flip: true
    clip: false
    variance: 0.1
    variance: 0.1
    variance: 0.2
    variance: 0.2
    step: 8
    offset: 0.5
  }
}
layer {
  name: "fc7_concat"
  type: "Concat"
  bottom: "fc7_stream0"
  bottom: "fc7_stream1"
  bottom: "fc7_stream2"
  bottom: "fc7_stream3"
  bottom: "fc7_stream4"
  bottom: "fc7_stream5"
  top: "fc7_concat"
  concat_param {
    axis: 1
  }
}
layer {
  name: "fc7_concat_act_loc"
  type: "Convolution"
  bottom: "fc7_concat"
  top: "fc7_concat_act_loc"
  param {
    lr_mult: 1.0
    decay_mult: 1
  }
  param {
    lr_mult: 2.0
    decay_mult: 0
  }
  convolution_param {
    num_output: 144
    pad: 1
    kernel_size: 3
    stride: 1
    weight_filler {
      type: "xavier"
    }
    bias_filler {
      type: "constant"
      value: 0
    }
  }
}
layer {
  name: "fc7_concat_act_loc_perm"
  type: "Permute"
  bottom: "fc7_concat_act_loc"
  top: "fc7_concat_act_loc_perm"
  permute_param {
    order: 0
    order: 2
    order: 3
    order: 1
  }
}
layer {
  name: "fc7_concat_act_loc_flat"
  type: "Flatten"
  bottom: "fc7_concat_act_loc_perm"
  top: "fc7_concat_act_loc_flat"
  flatten_param {
    axis: 1
  }
}
layer {
  name: "fc7_concat_act_conf"
  type: "Convolution"
  bottom: "fc7_concat"
  top: "fc7_concat_act_conf"
  param {
    lr_mult: 1.0
    decay_mult: 1
  }
  param {
    lr_mult: 2.0
    decay_mult: 0
  }
  convolution_param {
    num_output: 132
    pad: 1
    kernel_size: 3
    stride: 1
    weight_filler {
      type: "xavier"
    }
    bias_filler {
      type: "constant"
      value: 0
    }
  }
}
layer {
  name: "fc7_concat_act_conf_perm"
  type: "Permute"
  bottom: "fc7_concat_act_conf"
  top: "fc7_concat_act_conf_perm"
  permute_param {
    order: 0
    order: 2
    order: 3
    order: 1
  }
}
layer {
  name: "fc7_concat_act_conf_flat"
  type: "Flatten"
  bottom: "fc7_concat_act_conf_perm"
  top: "fc7_concat_act_conf_flat"
  flatten_param {
    axis: 1
  }
}
layer {
  name: "fc7_concat_act_priorbox"
  type: "PriorBox"
  bottom: "fc7_concat"
  bottom: "data_stream0"
  top: "fc7_concat_act_priorbox"
  prior_box_param {
    min_size: 60.0
    max_size: 111.0
    aspect_ratio: 2
    aspect_ratio: 3
    flip: true
    clip: false
    variance: 0.1
    variance: 0.1
    variance: 0.2
    variance: 0.2
    step: 16
    offset: 0.5
  }
}
layer {
  name: "conv6_2_concat"
  type: "Concat"
  bottom: "conv6_2_stream0"
  bottom: "conv6_2_stream1"
  bottom: "conv6_2_stream2"
  bottom: "conv6_2_stream3"
  bottom: "conv6_2_stream4"
  bottom: "conv6_2_stream5"
  top: "conv6_2_concat"
  concat_param {
    axis: 1
  }
}
layer {
  name: "conv6_2_concat_act_loc"
  type: "Convolution"
  bottom: "conv6_2_concat"
  top: "conv6_2_concat_act_loc"
  param {
    lr_mult: 1.0
    decay_mult: 1
  }
  param {
    lr_mult: 2.0
    decay_mult: 0
  }
  convolution_param {
    num_output: 144
    pad: 1
    kernel_size: 3
    stride: 1
    weight_filler {
      type: "xavier"
    }
    bias_filler {
      type: "constant"
      value: 0
    }
  }
}
layer {
  name: "conv6_2_concat_act_loc_perm"
  type: "Permute"
  bottom: "conv6_2_concat_act_loc"
  top: "conv6_2_concat_act_loc_perm"
  permute_param {
    order: 0
    order: 2
    order: 3
    order: 1
  }
}
layer {
  name: "conv6_2_concat_act_loc_flat"
  type: "Flatten"
  bottom: "conv6_2_concat_act_loc_perm"
  top: "conv6_2_concat_act_loc_flat"
  flatten_param {
    axis: 1
  }
}
layer {
  name: "conv6_2_concat_act_conf"
  type: "Convolution"
  bottom: "conv6_2_concat"
  top: "conv6_2_concat_act_conf"
  param {
    lr_mult: 1.0
    decay_mult: 1
  }
  param {
    lr_mult: 2.0
    decay_mult: 0
  }
  convolution_param {
    num_output: 132
    pad: 1
    kernel_size: 3
    stride: 1
    weight_filler {
      type: "xavier"
    }
    bias_filler {
      type: "constant"
      value: 0
    }
  }
}
layer {
  name: "conv6_2_concat_act_conf_perm"
  type: "Permute"
  bottom: "conv6_2_concat_act_conf"
  top: "conv6_2_concat_act_conf_perm"
  permute_param {
    order: 0
    order: 2
    order: 3
    order: 1
  }
}
layer {
  name: "conv6_2_concat_act_conf_flat"
  type: "Flatten"
  bottom: "conv6_2_concat_act_conf_perm"
  top: "conv6_2_concat_act_conf_flat"
  flatten_param {
    axis: 1
  }
}
layer {
  name: "conv6_2_concat_act_priorbox"
  type: "PriorBox"
  bottom: "conv6_2_concat"
  bottom: "data_stream0"
  top: "conv6_2_concat_act_priorbox"
  prior_box_param {
    min_size: 111.0
    max_size: 162.0
    aspect_ratio: 2
    aspect_ratio: 3
    flip: true
    clip: false
    variance: 0.1
    variance: 0.1
    variance: 0.2
    variance: 0.2
    step: 32
    offset: 0.5
  }
}
layer {
  name: "conv7_2_concat"
  type: "Concat"
  bottom: "conv7_2_stream0"
  bottom: "conv7_2_stream1"
  bottom: "conv7_2_stream2"
  bottom: "conv7_2_stream3"
  bottom: "conv7_2_stream4"
  bottom: "conv7_2_stream5"
  top: "conv7_2_concat"
  concat_param {
    axis: 1
  }
}
layer {
  name: "conv7_2_concat_act_loc"
  type: "Convolution"
  bottom: "conv7_2_concat"
  top: "conv7_2_concat_act_loc"
  param {
    lr_mult: 1.0
    decay_mult: 1
  }
  param {
    lr_mult: 2.0
    decay_mult: 0
  }
  convolution_param {
    num_output: 144
    pad: 1
    kernel_size: 3
    stride: 1
    weight_filler {
      type: "xavier"
    }
    bias_filler {
      type: "constant"
      value: 0
    }
  }
}
layer {
  name: "conv7_2_concat_act_loc_perm"
  type: "Permute"
  bottom: "conv7_2_concat_act_loc"
  top: "conv7_2_concat_act_loc_perm"
  permute_param {
    order: 0
    order: 2
    order: 3
    order: 1
  }
}
layer {
  name: "conv7_2_concat_act_loc_flat"
  type: "Flatten"
  bottom: "conv7_2_concat_act_loc_perm"
  top: "conv7_2_concat_act_loc_flat"
  flatten_param {
    axis: 1
  }
}
layer {
  name: "conv7_2_concat_act_conf"
  type: "Convolution"
  bottom: "conv7_2_concat"
  top: "conv7_2_concat_act_conf"
  param {
    lr_mult: 1.0
    decay_mult: 1
  }
  param {
    lr_mult: 2.0
    decay_mult: 0
  }
  convolution_param {
    num_output: 132
    pad: 1
    kernel_size: 3
    stride: 1
    weight_filler {
      type: "xavier"
    }
    bias_filler {
      type: "constant"
      value: 0
    }
  }
}
layer {
  name: "conv7_2_concat_act_conf_perm"
  type: "Permute"
  bottom: "conv7_2_concat_act_conf"
  top: "conv7_2_concat_act_conf_perm"
  permute_param {
    order: 0
    order: 2
    order: 3
    order: 1
  }
}
layer {
  name: "conv7_2_concat_act_conf_flat"
  type: "Flatten"
  bottom: "conv7_2_concat_act_conf_perm"
  top: "conv7_2_concat_act_conf_flat"
  flatten_param {
    axis: 1
  }
}
layer {
  name: "conv7_2_concat_act_priorbox"
  type: "PriorBox"
  bottom: "conv7_2_concat"
  bottom: "data_stream0"
  top: "conv7_2_concat_act_priorbox"
  prior_box_param {
    min_size: 162.0
    max_size: 213.0
    aspect_ratio: 2
    aspect_ratio: 3
    flip: true
    clip: false
    variance: 0.1
    variance: 0.1
    variance: 0.2
    variance: 0.2
    step: 64
    offset: 0.5
  }
}
layer {
  name: "conv8_2_concat"
  type: "Concat"
  bottom: "conv8_2_stream0"
  bottom: "conv8_2_stream1"
  bottom: "conv8_2_stream2"
  bottom: "conv8_2_stream3"
  bottom: "conv8_2_stream4"
  bottom: "conv8_2_stream5"
  top: "conv8_2_concat"
  concat_param {
    axis: 1
  }
}
layer {
  name: "conv8_2_concat_act_loc"
  type: "Convolution"
  bottom: "conv8_2_concat"
  top: "conv8_2_concat_act_loc"
  param {
    lr_mult: 1.0
    decay_mult: 1
  }
  param {
    lr_mult: 2.0
    decay_mult: 0
  }
  convolution_param {
    num_output: 96
    pad: 1
    kernel_size: 3
    stride: 1
    weight_filler {
      type: "xavier"
    }
    bias_filler {
      type: "constant"
      value: 0
    }
  }
}
layer {
  name: "conv8_2_concat_act_loc_perm"
  type: "Permute"
  bottom: "conv8_2_concat_act_loc"
  top: "conv8_2_concat_act_loc_perm"
  permute_param {
    order: 0
    order: 2
    order: 3
    order: 1
  }
}
layer {
  name: "conv8_2_concat_act_loc_flat"
  type: "Flatten"
  bottom: "conv8_2_concat_act_loc_perm"
  top: "conv8_2_concat_act_loc_flat"
  flatten_param {
    axis: 1
  }
}
layer {
  name: "conv8_2_concat_act_conf"
  type: "Convolution"
  bottom: "conv8_2_concat"
  top: "conv8_2_concat_act_conf"
  param {
    lr_mult: 1.0
    decay_mult: 1
  }
  param {
    lr_mult: 2.0
    decay_mult: 0
  }
  convolution_param {
    num_output: 88
    pad: 1
    kernel_size: 3
    stride: 1
    weight_filler {
      type: "xavier"
    }
    bias_filler {
      type: "constant"
      value: 0
    }
  }
}
layer {
  name: "conv8_2_concat_act_conf_perm"
  type: "Permute"
  bottom: "conv8_2_concat_act_conf"
  top: "conv8_2_concat_act_conf_perm"
  permute_param {
    order: 0
    order: 2
    order: 3
    order: 1
  }
}
layer {
  name: "conv8_2_concat_act_conf_flat"
  type: "Flatten"
  bottom: "conv8_2_concat_act_conf_perm"
  top: "conv8_2_concat_act_conf_flat"
  flatten_param {
    axis: 1
  }
}
layer {
  name: "conv8_2_concat_act_priorbox"
  type: "PriorBox"
  bottom: "conv8_2_concat"
  bottom: "data_stream0"
  top: "conv8_2_concat_act_priorbox"
  prior_box_param {
    min_size: 213.0
    max_size: 264.0
    aspect_ratio: 2
    flip: true
    clip: false
    variance: 0.1
    variance: 0.1
    variance: 0.2
    variance: 0.2
    step: 100
    offset: 0.5
  }
}
layer {
  name: "conv9_2_concat"
  type: "Concat"
  bottom: "conv9_2_stream0"
  bottom: "conv9_2_stream1"
  bottom: "conv9_2_stream2"
  bottom: "conv9_2_stream3"
  bottom: "conv9_2_stream4"
  bottom: "conv9_2_stream5"
  top: "conv9_2_concat"
  concat_param {
    axis: 1
  }
}
layer {
  name: "conv9_2_concat_act_loc"
  type: "Convolution"
  bottom: "conv9_2_concat"
  top: "conv9_2_concat_act_loc"
  param {
    lr_mult: 1.0
    decay_mult: 1
  }
  param {
    lr_mult: 2.0
    decay_mult: 0
  }
  convolution_param {
    num_output: 96
    pad: 1
    kernel_size: 3
    stride: 1
    weight_filler {
      type: "xavier"
    }
    bias_filler {
      type: "constant"
      value: 0
    }
  }
}
layer {
  name: "conv9_2_concat_act_loc_perm"
  type: "Permute"
  bottom: "conv9_2_concat_act_loc"
  top: "conv9_2_concat_act_loc_perm"
  permute_param {
    order: 0
    order: 2
    order: 3
    order: 1
  }
}
layer {
  name: "conv9_2_concat_act_loc_flat"
  type: "Flatten"
  bottom: "conv9_2_concat_act_loc_perm"
  top: "conv9_2_concat_act_loc_flat"
  flatten_param {
    axis: 1
  }
}
layer {
  name: "conv9_2_concat_act_conf"
  type: "Convolution"
  bottom: "conv9_2_concat"
  top: "conv9_2_concat_act_conf"
  param {
    lr_mult: 1.0
    decay_mult: 1
  }
  param {
    lr_mult: 2.0
    decay_mult: 0
  }
  convolution_param {
    num_output: 88
    pad: 1
    kernel_size: 3
    stride: 1
    weight_filler {
      type: "xavier"
    }
    bias_filler {
      type: "constant"
      value: 0
    }
  }
}
layer {
  name: "conv9_2_concat_act_conf_perm"
  type: "Permute"
  bottom: "conv9_2_concat_act_conf"
  top: "conv9_2_concat_act_conf_perm"
  permute_param {
    order: 0
    order: 2
    order: 3
    order: 1
  }
}
layer {
  name: "conv9_2_concat_act_conf_flat"
  type: "Flatten"
  bottom: "conv9_2_concat_act_conf_perm"
  top: "conv9_2_concat_act_conf_flat"
  flatten_param {
    axis: 1
  }
}
layer {
  name: "conv9_2_concat_act_priorbox"
  type: "PriorBox"
  bottom: "conv9_2_concat"
  bottom: "data_stream0"
  top: "conv9_2_concat_act_priorbox"
  prior_box_param {
    min_size: 264.0
    max_size: 315.0
    aspect_ratio: 2
    flip: true
    clip: false
    variance: 0.1
    variance: 0.1
    variance: 0.2
    variance: 0.2
    step: 300
    offset: 0.5
  }
}
layer {
  name: "act_loc"
  type: "Concat"
  bottom: "conv4_3_norm_concat_act_loc_flat"
  bottom: "fc7_concat_act_loc_flat"
  bottom: "conv6_2_concat_act_loc_flat"
  bottom: "conv7_2_concat_act_loc_flat"
  bottom: "conv8_2_concat_act_loc_flat"
  bottom: "conv9_2_concat_act_loc_flat"
  top: "act_loc"
  concat_param {
    axis: 1
  }
}
layer {
  name: "act_conf"
  type: "Concat"
  bottom: "conv4_3_norm_concat_act_conf_flat"
  bottom: "fc7_concat_act_conf_flat"
  bottom: "conv6_2_concat_act_conf_flat"
  bottom: "conv7_2_concat_act_conf_flat"
  bottom: "conv8_2_concat_act_conf_flat"
  bottom: "conv9_2_concat_act_conf_flat"
  top: "act_conf"
  concat_param {
    axis: 1
  }
}
layer {
  name: "act_priorbox"
  type: "Concat"
  bottom: "conv4_3_norm_concat_act_priorbox"
  bottom: "fc7_concat_act_priorbox"
  bottom: "conv6_2_concat_act_priorbox"
  bottom: "conv7_2_concat_act_priorbox"
  bottom: "conv8_2_concat_act_priorbox"
  bottom: "conv9_2_concat_act_priorbox"
  top: "act_priorbox"
  concat_param {
    axis: 2
  }
}
layer {
  name: "act_loss"
  type: "ACTCuboidLoss"
  bottom: "act_loc"
  bottom: "act_conf"
  bottom: "act_priorbox"
  bottom: "label"
  top: "act_loss"
  include {
    phase: TRAIN
  }
  propagate_down: true
  propagate_down: true
  propagate_down: false
  propagate_down: false
  loss_param {
    normalization: VALID
  }
  multibox_loss_param {
    loc_loss_type: SMOOTH_L1
    conf_loss_type: SOFTMAX
    loc_weight: 0.166666666667
    num_classes: 22
    share_location: true
    match_type: PER_PREDICTION
    overlap_threshold: 0.5
    use_prior_for_matching: true
    background_label_id: 0
    use_difficult_gt: true
    neg_pos_ratio: 3.0
    neg_overlap: 0.5
    code_type: CENTER_SIZE
    ignore_cross_boundary_bbox: false
    mining_type: MAX_NEGATIVE
  }
  act_cuboid_loss_param {
    sequence_length: 6
  }
}

